checkpoint_actor_700.pth (torch_old, 157191 bytes, 10 tensors)

fc1.weight f4 [128, 33]
0	0x3e6d54e9	0.23176922
1	0x3d418436	0.047245227
2	0xbe8cbd4c	-0.27488172
3	0x3dcae408	0.09906775
4	0x3d82b656	0.06382434
5	0xbd4a9831	-0.049461547
6	0x3e041d9d	0.12901922
7	0xbd14a41c	-0.03628932
8	0xbdb85a44	-0.09001592
9	0xb8f34b15	-0.00011601128
10	0x3e3ac563	0.1823936
11	0x3c7b4ecc	0.015338611
12	0xbe971c5f	-0.29513833
13	0xbdf8fd4d	-0.12157688
14	0xbeb0f3e7	-0.34561083
15	0xbe8802a4	-0.26564515
16	0xbdb27092	-0.08712877
17	0x3ce3fe46	0.027831208
18	0x3e2b2e6b	0.16716926
19	0xbe4eef95	-0.20208581
20	0xbe557d85	-0.20848663
21	0xbde0f138	-0.10983509
22	0xbd94d237	-0.07266658
23	0xbd31f45d	-0.043445934
24	0xbe73101d	-0.23736615
25	0x3dfb14b1	0.12259806
26	0x3d82d534	0.063883215
27	0x3d7c5143	0.061600935
28	0x3e92bcc8	0.28659654
29	0x3d0627ba	0.03275273
30	0x3d67e9e1	0.05661953
31	0x3d97506b	0.073883854
32	0xbd4fd23d	-0.05073761
33	0x3f183ee0	0.5947094
34	0x3d0c7cc7	0.034298684
35	0xbe2984b9	-0.16554536
36	0x3d1e805a	0.038696624
37	0x3ddb0922	0.10695101
38	0xbe0db042	-0.13836768
39	0x3e34b3da	0.17646733
40	0x3e1acc59	0.15117015
41	0x3eaae8c9	0.33380726
42	0x3bc15351	0.0058998247
43	0x3d671e71	0.056425516
44	0xbda73867	-0.08165055
45	0xbd55c35f	-0.052188274
46	0xbefba1d2	-0.49146897
47	0xbeecad7d	-0.4622611
48	0x3e4b2903	0.19839863
49	0xbe5da3f1	-0.2164457
50	0x3c4f439c	0.012650397
51	0xbde3a083	-0.111145996
52	0x3d6963a0	0.056979775
53	0xbd55ab09	-0.052165065
54	0x3d9c9555	0.0764567
55	0xbe2b0c70	-0.16703963
56	0x3ca6e0e9	0.020370917
57	0x3cdac4cd	0.02670517
58	0xbd075f04	-0.0330496
59	0x3e826f84	0.25475705
60	0xbdc6fcfd	-0.097162224
61	0xbe26b639	-0.1628045
62	0x3d6803be	0.056644194
63	0x3ca2f6a5	0.019893
64	0x3d8bd561	0.06827808
65	0xbec25eb5	-0.3796288
66	0xbe2329ac	-0.15933865
67	0x3ea19803	0.31561288
68	0xbd6fd2f4	-0.05855079
69	0x3e81967c	0.25310123
70	0x3d9bd85a	0.07609625
71	0xbc87fce8	-0.016600087
72	0x3e443b6e	0.19163296
73	0x3e05c3d2	0.13062981
74	0x3d84f771	0.06492508
75	0x3e137637	0.14400564
76	0xbdb73d96	-0.089472935
77	0xbd8ed615	-0.06974427
78	0x3cd3eb05	0.025868902
79	0xbeef72cb	-0.46767268
80	0xbec60afb	-0.38680252
81	0x3ddf363a	0.10899015
82	0xbddeefc8	-0.108855784
83	0xbddbc202	-0.107303634
84	0x3dc0fcab	0.094231926
85	0xbd0059be	-0.031335585
86	0x3dbe61be	0.092959866
87	0x3dd91495	0.10599629
88	0xbd962c6d	-0.07332692
89	0xbeb82de8	-0.35972524
90	0x3d812612	0.063060895
91	0x3c55b263	0.013043019
92	0x3e6ebb27	0.2331358
93	0xbe0182f3	-0.1264761
94	0x3e79a66e	0.24379894
95	0x3cd9edcc	0.026602648
96	0x3d939522	0.07206179
97	0xbdae732f	-0.08518063
98	0x3f57cdf3	0.8429863
99	0x3e3e8f4c	0.18609351
100	0xbef1ac48	-0.47201753
101	0xbef4acd0	-0.47788095
102	0xbbf7e3f6	-0.007565017
103	0xbdf6011c	-0.1201193
104	0xbd8a7716	-0.06760995
105	0xbe1bcf98	-0.1521591
106	0xbd531f86	-0.051543735
107	0x3e947ac1	0.28999904
108	0x3d3a861d	0.045538057
109	0x3c7bb794	0.015363593
110	0x3ce0f965	0.02746267
111	0xbcf7f9c8	-0.030270472
112	0xbb3d7a02	-0.0028911834
113	0x3eed7cb3	0.463842
114	0x3ebedc0d	0.3727726
115	0x3d19c7bb	0.037543993
116	0xbd964001	-0.073364265
117	0xbd6bc255	-0.057558376
118	0xbdb18e44	-0.08669713
119	0xbd71ad89	-0.059003387
120	0x3d29fa4e	0.041498475
121	0xbce742c2	-0.028230075
122	0x3bc73b6f	0.006080083
123	0x3e1bd4de	0.15217921
124	0xbd042c70	-0.03226894
125	0x3c8eaf09	0.017417448
126	0xbe2f2e4d	-0.17107506
127	0xbea4a686	-0.32158297
128	0xbd338322	-0.04382623
129	0x3e251fa2	0.16125348
130	0x3b0c4720	0.0021404698
131	0x3f0b2ae2	0.5436231
132	0x3eb48a9e	0.35262007
133	0xbc0855f4	-0.008321274
134	0xbd60ae88	-0.054853946
135	0xbc5d944d	-0.013524127
136	0xbe29721a	-0.16547433
137	0x3df36260	0.11883998
138	0x3d2b59eb	0.0418338
139	0x3e35f4d7	0.1776918
140	0xbe8b1414	-0.27163756
141	0x3e34ffd4	0.17675716
142	0x3d84536e	0.064612255
143	0x3d97310b	0.07382401
144	0xbd997047	-0.07492118
145	0xbf036788	-0.5132985
146	0xbe992555	-0.29911295
147	0xbe3c60f0	-0.18396354
148	0xbe1748c9	-0.14773859
149	0xbd84ca2e	-0.06483875
150	0x3e130feb	0.14361541
151	0xbe097928	-0.13425124
152	0xbe532070	-0.20617843
153	0x3e446c5f	0.19181965
154	0x3d8c7c32	0.06859626
155	0xbdeca38e	-0.11554633
156	0x3d1980cb	0.037476342
157	0xbd5113de	-0.051044337
158	0x3e4b8f9c	0.19879001
159	0xbdf07f4f	-0.11743032
160	0x3e9c49e3	0.3052512
161	0x3c468b48	0.012118168
162	0x3e4a31dc	0.19745582
163	0x3c371b00	0.011175871
164	0x3fce91cb	1.6138242
165	0x3f009bd9	0.50237805
166	0xbefc7cf9	-0.49314097
167	0xbea63c5c	-0.32467926
168	0x3cd0cfb0	0.025489658
169	0x3e93a10f	0.28833815
170	0x3e03d563	0.1287437
171	0xbe355828	-0.1770941
172	0x3e0b7d74	0.13622075
173	0x3e1b22e4	0.15150028
174	0x3df074c0	0.11741018
175	0xbd893ee7	-0.06701451
176	0xbe00445b	-0.12526076
177	0x3d9186a6	0.0710576
178	0xbebcbdbd	-0.3686351
179	0xbde48974	-0.111590296
180	0x3e64844a	0.2231609
181	0x3d999cef	0.07500636
182	0x3caccafc	0.021092884
183	0xbdb96978	-0.0905332
184	0x3c14a0cf	0.009071543
185	0x3de32b9a	0.11092301
186	0x3d20e7f1	0.039283697
187	0x3dc59a70	0.09648597
188	0x3dcb2cd6	0.09920661
189	0x3d59dbc5	0.053188104
190	0x3ddefd87	0.108882
191	0xba68cd0d	-0.00088806526
192	0xbe154de3	-0.14580493
193	0xbe2dfd3e	-0.16991135
194	0x3d8e574b	0.069502436
195	0xbc9d4b50	-0.01920095
196	0x3d96c77f	0.073622696
197	0xbf5c00b6	-0.85938585
198	0xbe4d51a6	-0.20050678
199	0x3f333407	0.7000126
200	0xbc86e601	-0.016467096
201	0xbde2f213	-0.11081328
202	0xbe813b71	-0.25240663
203	0x3e3306d5	0.17483075
204	0xbdc8f161	-0.098116644
205	0xbb8337d9	-0.0040044603
206	0x3e04b3a1	0.12959148
207	0x3de035a0	0.10947728
208	0x3d2e3506	0.042531036
209	0xbd859715	-0.06522957
210	0x3e8190cb	0.2530578
211	0x3cb14019	0.02163701
212	0x3d87ced9	0.0663125
213	0xbe6cb1e9	-0.23114742
214	0xbeaf0e91	-0.341908
215	0xbe497cf6	-0.19676575
216	0xbe353bda	-0.17698613
217	0x3e003b2e	0.12522575
218	0x3e9b0d6c	0.30283678
219	0xbe4f7cba	-0.20262423
220	0xbc874c03	-0.016515737
221	0xbdb9499f	-0.09047245
222	0xbee54fd0	-0.44787455
223	0xbce213da	-0.027597357
224	0xbea56268	-0.3230164
225	0xbd814fec	-0.06314072
226	0xbe99a14f	-0.3000588
227	0xbd999d3f	-0.075006954
228	0xbc59537f	-0.013264536
229	0x3d59ddf2	0.05319018
230	0xbf183cac	-0.5946758
231	0x3f0af2f6	0.5427698
232	0xbf02104e	-0.5080613
233	0xbd22af55	-0.03971799
234	0x3e152f6e	0.14568874
235	0x3e248cec	0.16069382
236	0xbdbc0f0e	-0.09182559
237	0x3d3a5628	0.04549232
238	0xbd41f67b	-0.047354203
239	0x3dcefc60	0.101067305
240	0xbdf55d42	-0.11980678
241	0x3dd9cdb3	0.10634937
242	0xbd7d2567	-0.061803248
243	0xbcb92334	-0.022599794
244	0xbf437afe	-0.76359546
245	0x3e426d1e	0.18986937
246	0xbd0310ca	-0.031998433
247	0xbe63f14a	-0.22260013
248	0xbd709a0c	-0.05874066
249	0xbcaa9191	-0.020821365
250	0xbd306dea	-0.043073572
251	0x3bc4c543	0.0060049607
252	0x3c834d72	0.01602814
253	0xbdbd0235	-0.092289366
254	0xbd83dc0c	-0.06438455
255	0x3e14987c	0.14511293

fc1.bias f4 [128]
0	0xbdb50bca	-0.08840139
1	0x3db583f1	0.088630565
2	0xbce3fd25	-0.02783067
3	0x3dd0802e	0.10180698
4	0xbcfb9626	-0.030711245
5	0xbd941879	-0.0723123
6	0x3e168b02	0.14701465
7	0x3dd16cdc	0.102258414
8	0x3b1dedf5	0.0024098132
9	0xbe0af817	-0.13571201
10	0xbe79ecbc	-0.24406713
11	0x3ea2c806	0.3179323
12	0xbe41b582	-0.18916896
13	0x3dec58e8	0.11540395
14	0x3efb0bb4	0.49032366
15	0x3d923814	0.07139602
16	0xbde1f923	-0.11033847
17	0x3e76f967	0.24118577
18	0xbe72cb12	-0.23710278
19	0xbe779331	-0.24177243
20	0xbe29d07c	-0.16583437
21	0x3da46fcf	0.08029138
22	0x3d9afc09	0.07567603
23	0xbc84d2c1	-0.016213777
24	0x3ce742d3	0.028230106
25	0xbd69ff9a	-0.057128526
26	0x3eae3911	0.34027913
27	0xbca3d736	-0.020000082
28	0xbe075c9c	-0.13218921
29	0x3e9036ec	0.28166902
30	0x3e02ae3d	0.12761779
31	0x3d8cf855	0.06883303
32	0xbd8e0ef0	-0.06936443
33	0x3eb125d9	0.34599188
34	0x3e85b499	0.26114348
35	0x3e712063	0.23547511
36	0x3db6204e	0.088928804
37	0x3dad9ee8	0.084775746
38	0x3e01a525	0.12660654
39	0xbe958fe2	-0.29211336
40	0x3d0ae458	0.03390917
41	0x3ecd7bc5	0.4013349
42	0x3e49453f	0.19655322
43	0xbd80c210	-0.062870145
44	0x3e713624	0.2355581
45	0x3d131ab5	0.03591414
46	0x3e8898aa	0.26678973
47	0x3e866a98	0.262532
48	0x3e0bed4a	0.13664737
49	0x3c30c647	0.0107894605
50	0x3e0b4696	0.13601145
51	0xbe1fea6c	-0.15616769
52	0x3e58b378	0.21162212
53	0x3d47155d	0.048604358
54	0x3e7809a3	0.24222426
55	0xbcf75ebf	-0.030196546
56	0x3e819f1e	0.2531671
57	0x3e4cc3a8	0.19996512
58	0x3e5d6e49	0.21624102
59	0x3e1f7f23	0.15575843
60	0x3dc3071a	0.09522839
61	0x3a037eff	0.00050161773
62	0x3d96e6ab	0.07368215
63	0x3ea8c136	0.32959908
64	0x3dbe77d7	0.093002014
65	0xbd8a2992	-0.0674621
66	0x3df53c8b	0.11974438
67	0x3be0db66	0.006862092
68	0xbe43c72f	-0.19118951
69	0x3d9c058e	0.07618247
70	0xbbbd2c41	-0.0057730977
71	0x3e2b3348	0.16718781
72	0x3d04835f	0.032351848
73	0x3d586885	0.052834053
74	0x3e390dad	0.18071623
75	0xbdbde2ab	-0.09271749
76	0x3ec090a1	0.37610343
77	0x3e2eb99c	0.17062992
78	0x3e09ba4d	0.13449974
79	0x3d9d03ed	0.076667644
80	0xbe715cf6	-0.23570618
81	0xbce27df5	-0.027647952
82	0xbdd0c9e0	-0.101947546
83	0x3de2fc21	0.11083246
84	0x3e0ca1af	0.13733552
85	0x3e6755b9	0.22591294
86	0xbbb1a4f9	-0.0054212776
87	0x3e1a5f1b	0.15075342
88	0xbd59f664	-0.053213492
89	0xbd055c82	-0.032558925
90	0x3defb25b	0.117039405
91	0x3d74563c	0.059652552
92	0xbcf72da8	-0.030173138
93	0x3e528904	0.2056008
94	0x3e07c0c8	0.13257134
95	0x3e151f01	0.14562608
96	0xbd60c391	-0.054874007
97	0x3e9d3d7f	0.3071098
98	0xbcadb746	-0.021205556
99	0x3e702068	0.23449862
100	0x3ea0ded2	0.31419998
101	0xbd930732	-0.07179107
102	0x3d6bf152	0.057603188
103	0xbd2ca3e0	-0.04214847
104	0xbd8c397d	-0.068469025
105	0x3de28875	0.11061183
106	0x3e528892	0.2055991
107	0xbe6eeae7	-0.23331796
108	0x3eb84905	0.3599321
109	0xbbe3effc	-0.0069560986
110	0x3eb2d25d	0.3492612
111	0x3e366a47	0.17813979
112	0x3e0b1b59	0.13584651
113	0x3e25f569	0.16206898
114	0x3e3f820b	0.18701951
115	0x3e3d0190	0.18457627
116	0x3ee1b61c	0.4408425
117	0x3e5dc68a	0.21657768
118	0x3e814218	0.25245738
119	0x3e7490fc	0.23883432
120	0x3dc92d73	0.09823122
121	0x3d8a43a4	0.06751183
122	0x3d7babc2	0.061443098
123	0x3dcf1e63	0.10113218
124	0x3e16ac1a	0.14714089
125	0xbda3f780	-0.08006191
126	0x3e477cf5	0.19481261
127	0xbd9a4725	-0.07533101

fc2.weight f4 [256, 128]
0	0xbed65e2b	-0.4186872
1	0x3d297c67	0.041378405
2	0x3e5520c2	0.20813277
3	0x3d2e21d3	0.042512726
4	0x3d836f88	0.06417757
5	0x3e63e8e8	0.22256815
6	0xbf2b6fda	-0.66967547
7	0x3e5967e4	0.21231037
8	0xbd91883a	-0.07106061
9	0xbe5e9e92	-0.21740177
10	0x3c13ea04	0.009027962
11	0xbb739912	-0.0037170094
12	0x3ecebb85	0.4037744
13	0x3d1cb2ac	0.038256332
14	0x3e9777c5	0.29583564
15	0xbd0b61c1	-0.034028772
16	0xbf39a962	-0.7252408
17	0x3e3657b5	0.17806895
18	0x3e849168	0.25892186
19	0x3d4a24ce	0.049351506
20	0x3da72442	0.081612125
21	0x3ca0e7fc	0.019641869
22	0xbe83848b	-0.2568706
23	0xbbb1e283	-0.0054286136
24	0x3e7586ec	0.2397725
25	0x3e6e3f79	0.232664
26	0xbf11bd95	-0.56929904
27	0xbe555c1f	-0.20835923
28	0xbdd2646d	-0.10273061
29	0xbd747e67	-0.05969086
30	0x3de88791	0.11353982
31	0x3e68348c	0.22676295
32	0x3e91c4d1	0.28470472
33	0x3e1e89a2	0.1548219
34	0xbbaa3954	-0.0051948223
35	0xbcd61dbd	-0.026137227
36	0x3ca884ea	0.02057119
37	0x3e13e633	0.14443283
38	0x3e10f49a	0.14155808
39	0xbe24a2a3	-0.16077666
40	0xbe2ade73	-0.1668642
41	0x3dd8f3f5	0.10593406
42	0xbe72a673	-0.23696308
43	0xbf0adadf	-0.5424022
44	0x3e5d5193	0.2161315
45	0xbeab6df6	-0.3348233
46	0x3ebd4f70	0.36974669
47	0x3ddd8d87	0.1081801
48	0x3e01f35f	0.12690495
49	0x3ea8469f	0.3286638
50	0xbeb0f170	-0.34559202
51	0xbbcb615b	-0.006206674
52	0x3e0eafbf	0.1393423
53	0xbe028d40	-0.12749195
54	0x3d8e3a19	0.06944675
55	0x3e4b0aef	0.1982839
56	0x3ec7707b	0.38953003
57	0x3d749275	0.059709985
58	0xbd37c40d	-0.044864703
59	0x3e450e9d	0.19243856
60	0xbe757086	-0.23968706
61	0xbe9d6625	-0.30741993
62	0xbeb46aa9	-0.35237625
63	0xbd6e38cb	-0.05815963
64	0x3ea64fa2	0.3248263
65	0x3d9469eb	0.07246765
66	0xbdbe2adf	-0.09285521
67	0xbd98a27c	-0.074528664
68	0xbdc5524b	-0.09634837
69	0xbbbe3610	-0.0058047846
70	0x3e712c08	0.23551953
71	0x3e628e0b	0.22124498
72	0xbcc14926	-0.02359445
73	0x3e2ae574	0.16689092
74	0x3edb0c08	0.42782617
75	0xbe0c799f	-0.1371827
76	0x3e96aa21	0.29426673
77	0x3f309eff	0.6899261
78	0xbc9caa35	-0.01912413
79	0xbe4b4b20	-0.19852877
80	0x3bd84339	0.0065998104
81	0xbd9db403	-0.0770035
82	0xbe809368	-0.25112462
83	0xbf104ea5	-0.5637
84	0xbdede917	-0.11616724
85	0x3e010265	0.1259857
86	0x3e161418	0.14656103
87	0xbee5cbb7	-0.44881985
88	0xbd3917c0	-0.045188665
89	0xbe0db88a	-0.13839927
90	0xbe16d6d5	-0.1473039
91	0xbf06be4e	-0.5263413
92	0x3decf4b4	0.11570111
93	0xbe19a29d	-0.15003438
94	0x3ea134ec	0.3148569
95	0x3e39a5b4	0.18129617
96	0xbec7a18b	-0.38990435
97	0x3e6a7a29	0.22898163
98	0xbe736f7c	-0.23772997
99	0xbf07a5ee	-0.52987564
100	0x3e5bf891	0.2148154
101	0xbf43486a	-0.7628237
102	0xbe8536cb	-0.26018366
103	0xbd7a82e4	-0.061159983
104	0xbe1c7855	-0.15280278
105	0xbe725ab9	-0.2366742
106	0xbe9dc70d	-0.30815926
107	0x3e089077	0.13336359
108	0x3d89cbb5	0.06728307
109	0x3e4f77cd	0.20260544
110	0x3c8803b9	0.016603338
111	0xbe32a121	-0.17444278
112	0xbe07ac09	-0.1324922
113	0x3d88687b	0.06660553
114	0xbf43ef4a	-0.76537
115	0xbd4bdc86	-0.049770854
116	0xbed8b711	-0.4232717
117	0x3df24263	0.118290685
118	0xbd9b5aef	-0.075857036
119	0xbd34f1f2	-0.04417605
120	0xbd441d88	-0.047879726
121	0xbe8f0c99	-0.279393
122	0x3df51d08	0.11968428
123	0xbd92aeb8	-0.07162231
124	0xbde23dc0	-0.11046934
125	0x3d4bab27	0.04972377
126	0xbed02a17	-0.40657112
127	0xbe85d460	-0.26138592
128	0x3dc7e904	0.09761241
129	0x3e949cf0	0.29025984
130	0x3ed230a3	0.41052732
131	0xbea0ca62	-0.31404406
132	0x3e869544	0.26285756
133	0x3d8d20a9	0.06890995
134	0xbea35242	-0.31898695
135	0x3e56a95d	0.20963044
136	0xbb960a4b	-0.0045788637
137	0xbe422bae	-0.18961975
138	0xbd8d3a3a	-0.068958715
139	0x3e9cbf1d	0.30614558
140	0xbed27716	-0.4110648
141	0xbf1510f5	-0.58229
142	0x3ed82afa	0.4222029
143	0xbf28095a	-0.6563927
144	0x3d4d4aa5	0.050120015
145	0x3d5f13bf	0.05446219
146	0xbdb5a4f8	-0.08869356
147	0xbee56734	-0.448053
148	0x3efb85b9	0.4912546
149	0xbe221aa4	-0.15830475
150	0x3e0f6ead	0.14007063
151	0x3e998761	0.29986098
152	0xbf3c8686	-0.73642766
153	0x3ddce441	0.107857235
154	0xbec07285	-0.3758737
155	0xbe9f77c6	-0.31146067
156	0x3e882f1f	0.2659845
157	0xbe84efb9	-0.25964144
158	0xbeb01410	-0.34390306
159	0x3cdfbd1e	0.027311858
160	0x3f16b122	0.58864033
161	0x3d596f76	0.053084813
162	0xbe801834	-0.25018466
163	0xbda70dae	-0.08156906
164	0xbe5717c6	-0.21005163
165	0xbd53af79	-0.051681016
166	0x3e884e78	0.26622367
167	0x3e7f7d7b	0.24950211
168	0xbe73b033	-0.23797683
169	0x3e487d7f	0.19579123
170	0x3e1a05ba	0.15041247
171	0xbbb46947	-0.005505714
172	0xbe7e8275	-0.24854453
173	0xbe2f9c01	-0.17149355
174	0x3b7a23c1	0.0038168284
175	0xbccbb5e5	-0.024867008
176	0x3d2f8927	0.042855408
177	0x3daa261a	0.083080485
178	0x3ebe7aec	0.37203157
179	0x3e6e23b4	0.23255807
180	0xbd3d6eb4	-0.046248153
181	0xbee684cc	-0.4502319
182	0xbed0514e	-0.4068703
183	0xbea2efb4	-0.31823504
184	0x3aaa1b69	0.001297814
185	0xbeac04b4	-0.33597338
186	0x3ddd7ebd	0.10815189
187	0x3dca59b4	0.09880391
188	0x3e42e62b	0.19033115
189	0xbe3e1855	-0.1856397
190	0x3de04a20	0.10951638
191	0xbf1fdc9c	-0.62446
192	0x3e25f4ed	0.16206713
193	0xbea7387c	-0.32660282
194	0xbecc50d3	-0.39905414
195	0x3d1bd858	0.03804812
196	0x3df1f92c	0.11815104
197	0xbf4367d5	-0.7633031
198	0x3ebeb300	0.3724594
199	0x3ef915f5	0.48649564
200	0x3d225634	0.03963299
201	0x3db615bc	0.08890864
202	0xbe8bd7e9	-0.27313164
203	0x3f079a20	0.5296955
204	0xbe391de2	-0.18077806
205	0x3f0b1008	0.54321337
206	0x3e1c4bf6	0.15263352
207	0x3e98beac	0.2983297
208	0x3e850655	0.25981393
209	0x3e162c5a	0.14665356
210	0x3eb56176	0.3542592
211	0xbdbfa7e8	-0.093581975
212	0x3e91d757	0.28484604
213	0x3c60a16d	0.013710362
214	0xbe672f2b	-0.22576587
215	0xbf8a55a5	-1.0807387
216	0xbe48ccdd	-0.19609399
217	0x3eae409f	0.34033677
218	0xbec4e6f4	-0.38457453
219	0xbe7990e4	-0.24371678
220	0x3ec4312c	0.38318765
221	0xbd64e3c8	-0.05588129
222	0xbd31f48a	-0.0434461
223	0xbe15fd36	-0.14647374
224	0x3cdfb85a	0.027309585
225	0xbd46ffd3	-0.048583817
226	0x3e65e990	0.22452378
227	0x3e200af7	0.15629183
228	0xbeaa29f1	-0.33235124
229	0xbdc84adf	-0.097799055
230	0x3e795554	0.24348956
231	0x3e8bbe1c	0.2729348
232	0x3d815dcf	0.06316721
233	0xbd159046	-0.036514543
234	0xbe3f8769	-0.18703999
235	0x3e9d89a4	0.30769074
236	0x3daecf20	0.085356
237	0xbe1dac87	-0.15397845
238	0x3cb6c717	0.02231173
239	0xbe64402a	-0.22290102
240	0xbdef606d	-0.11688314
241	0xbe323b34	-0.17405397
242	0xbf45561e	-0.7708453
243	0xbf38ec2e	-0.7223538
244	0xbe8b430a	-0.27199584
245	0x3e4419d9	0.19150485
246	0x3d006dc2	0.031354673
247	0xbf08d720	-0.53453255
248	0xbe46de45	-0.19420727
249	0xbe3a31d1	-0.18183066
250	0xbf17094e	-0.5899857
251	0xbe670f05	-0.22564323
252	0xbeab5882	-0.33465964
253	0x3f12fe73	0.5741951
254	0xbf28b707	-0.6590428
255	0x3ee82f37	0.45348522

fc2.bias f4 [256]
0	0x3d80a79f	0.06281971
1	0xbcc88c4c	-0.024480961
2	0x3d9d2042	0.07672168
3	0xbdec122a	-0.11526902
4	0x3dd5506a	0.104157284
5	0x3de306fc	0.110853165
6	0x3d8d7fcf	0.06909143
7	0x3dafbe51	0.08581222
8	0xbde7e787	-0.11323457
9	0x3c48e691	0.012262003
10	0x3e3a5499	0.18196334
11	0xbe68c6d1	-0.22732092
12	0x3e1cf5ec	0.15328187
13	0x3dc6e93b	0.09712454
14	0x3dae4ec4	0.08511117
15	0xbd349055	-0.04408296
16	0xbe25d621	-0.16194965
17	0xbd13fe78	-0.036131352
18	0x3bcd6b7d	0.006268917
19	0x3da6ca98	0.081441104
20	0x3e2e2614	0.17006713
21	0x3e28c581	0.16481592
22	0xbd112e04	-0.035444275
23	0x3e21f0b8	0.15814483
24	0xbeaeb896	-0.34125203
25	0xbe305f21	-0.17223789
26	0x3d5426f9	0.05179498
27	0x3cd8faa3	0.0264867
28	0xbd4913d9	-0.049091194
29	0x3d73862f	0.05945414
30	0x3e301720	0.17196321
31	0xbdcc0de9	-0.09963591
32	0x3c6fca81	0.014635683
33	0xbcda0880	-0.026615381
34	0xbe1d6b4a	-0.15372959
35	0xbd1c3590	-0.03813702
36	0x3d83d52b	0.06437143
37	0x3e4e6e2c	0.20159215
38	0x3e588a82	0.21146587
39	0x3dd94bd6	0.10610168
40	0xbdc080ad	-0.09399543
41	0x3d615422	0.055011876
42	0xbddaa575	-0.1067609
43	0xbd8ae686	-0.0678225
44	0x3c5fc535	0.013657858
45	0xbe663a74	-0.22483236
46	0x3e3483af	0.17628358
47	0x3da91891	0.08256639
48	0x3d806de1	0.06270958
49	0x3dc8e538	0.09809345
50	0xbd684958	-0.05671057
51	0xbc7015d0	-0.014653638
52	0x3a76fb8e	0.000942164
53	0x3cdc2da9	0.026877241
54	0xbe2c8fd1	-0.16851737
55	0xbd9a506c	-0.075348705
56	0x3ddb3fef	0.10705554
57	0xbcf2c2c9	-0.029633896
58	0xbd02da23	-0.031946313
59	0x3a4e7d32	0.0007876932
60	0x3d2fd3c7	0.042926576
61	0x3ceccafd	0.028905386
62	0x3cee8bb0	0.029119343
63	0x3dcf5b1e	0.10124801
64	0xbce77f7e	-0.028259035
65	0xbdd5da0e	-0.10441981
66	0x3e3c717f	0.1840267
67	0xbe3c3b64	-0.1838203
68	0x3c69c22b	0.014267485
69	0x3e7a1dce	0.24425432
70	0xbcd6e194	-0.02623061
71	0xbe22b59c	-0.15889591
72	0xbd153db8	-0.036435813
73	0x3bd4c4af	0.006493173
74	0xbba536f2	-0.0050419504
75	0x3d30d41a	0.043171026
76	0xbdbde50f	-0.09272205
77	0xbc0533d0	-0.008130029
78	0xbe803e2c	-0.25047433
79	0xbdaea360	-0.08527255
80	0x3dc4c744	0.096083194
81	0x3e0750fd	0.13214488
82	0xbe996278	-0.29957938
83	0xbd88df8e	-0.06683265
84	0xbe22c745	-0.15896328
85	0x3dc9c2a8	0.09851581
86	0x3e57ef7c	0.2108745
87	0xbe3d87af	-0.1850879
88	0x3e0eb090	0.13934541
89	0xbcf17c67	-0.029478265
90	0x3e4eefa2	0.202086
91	0x3e042e14	0.12908202
92	0x3dc7dcbc	0.097588986
93	0x3e655883	0.22397046
94	0x3c6ea7a1	0.014566333
95	0x3e400ff0	0.1875608
96	0x3e09b5e6	0.13448295
97	0x3e55769a	0.20846024
98	0x3e07f620	0.13277483
99	0x3da2c9b6	0.079486296
100	0xbda39ff4	-0.07989493
101	0x3bb447d3	0.005501726
102	0x3d1a8ec6	0.037733816
103	0x3e57ac25	0.21061762
104	0x3e1803d1	0.14845206
105	0xbd9593b7	-0.07303565
106	0x3dafc62e	0.08582722
107	0xbc800e84	-0.015631922
108	0x3e38f9c5	0.1806403
109	0x3e73211e	0.23743102
110	0xbd044b4e	-0.03229838
111	0xbd6b3e51	-0.057432476
112	0xbe12ef8f	-0.14349197
113	0x3d6f353c	0.058400378
114	0x3e0b8c2f	0.13627695
115	0x3be30787	0.0069283876
116	0x3d2c8cb6	0.04212638
117	0xbdae1076	-0.084992334
118	0xbd823163	-0.06357076
119	0xbdda66e9	-0.1066416
120	0x3dcfa011	0.10137952
121	0x3d0c7139	0.034287665
122	0x3e1dca0b	0.15409105
123	0xbccbcc14	-0.024877585
124	0xbacb7b94	-0.00155245
125	0x3d27a56a	0.040929236
126	0xbb3fe544	-0.002928094
127	0xbe35d983	-0.17758755
128	0xbceb834b	-0.028749129
129	0x3db32ba2	0.08748557
130	0x3d8f8fcb	0.07009848
131	0xbe384bcd	-0.17997666
132	0xbeb8dbd1	-0.36105207
133	0x3dba441c	0.09095022
134	0xbdb9629a	-0.0905201
135	0x3da064ab	0.07831701
136	0x3e14fd5c	0.14549774
137	0x3e55ba22	0.20871785
138	0xbd9c4d0a	-0.076318815
139	0xbdce3a7f	-0.10069751
140	0x3ddc284a	0.10749872
141	0xbe170f29	-0.14751877
142	0xbd67d98c	-0.056603953
143	0xbe05ca55	-0.13065465
144	0x3d468126	0.04846301
145	0xbdb0729d	-0.08615611
146	0xbba3f211	-0.005003222
147	0xbd9c91f4	-0.07645026
148	0x3daeb8e8	0.08531362
149	0x3e6565bd	0.22402091
150	0x3e866de1	0.26255706
151	0x3dd26d5f	0.10274767
152	0x3d0c3b87	0.034236457
153	0xbde4f961	-0.11180378
154	0x3d62fc29	0.05541626
155	0x3dd35ba7	0.10320216
156	0x3dc4ce68	0.09609681
157	0x3caf082b	0.0213662
158	0x3e342fbf	0.17596339
159	0xbba03bb2	-0.0048899287
160	0xbca48b7a	-0.020086039
161	0xbe047fa8	-0.12939322
162	0x3db6410c	0.088991255
163	0x3da05626	0.078289315
164	0x3e289257	0.16462074
165	0xbe22a382	-0.15882686
166	0x3c5b26ee	0.013375981
167	0x3ea28679	0.3174322
168	0x3d7c13b4	0.061542228
169	0x3e416f9d	0.18890233
170	0x3e45ba9b	0.19309466
171	0x3db2e9bd	0.08735988
172	0xbe8b7706	-0.27239245
173	0xba54beaa	-0.00081155694
174	0x3dccf590	0.10007775
175	0x3d98ec7b	0.0746698
176	0xbdac7893	-0.08421435
177	0x3dd66479	0.104683824
178	0x3d81e59b	0.06342622
179	0x3d847e2c	0.06469378
180	0x3d60ebad	0.054912258
181	0xbe17d2d7	-0.14826523
182	0x3d331a8e	0.043726496
183	0x3b0a0395	0.0021059264
184	0x3e13ecd6	0.14445814
185	0xbde473ba	-0.111548856
186	0x3c865ab1	0.016400667
187	0x3d9c0e8e	0.076199636
188	0x3cb14569	0.021639543
189	0x3d8f26b3	0.06989803
190	0x3dbe40c5	0.092896976
191	0x3dfdf89c	0.12400934
192	0xbdfdcf84	-0.12393096
193	0x3dfd2a14	0.123615414
194	0x3dbc710e	0.09201251
195	0x3e52b6c5	0.20577534
196	0xbe807baa	-0.25094348
197	0x3d9d6c94	0.07686725
198	0x3d7b2341	0.061312918
199	0x3dada31c	0.08478376
200	0x3d03d5b7	0.032186236
201	0x3dba2d14	0.09090629
202	0xbe0be5c5	-0.13661869
203	0xbdd96685	-0.10615257
204	0xbc465f78	-0.012107722
205	0x3d8ca972	0.06868257
206	0x3d3040e2	0.043030627
207	0xbcee1776	-0.029063921
208	0xbdced335	-0.10098878
209	0x3d80fafb	0.06297871
210	0x3dccc0f3	0.0999774
211	0x3defbc24	0.11705807
212	0x3e03e562	0.12880471
213	0x3c237bec	0.009978276
214	0x3c857cc6	0.016294848
215	0x3e3fff6c	0.1874978
216	0xbdd0b6f3	-0.10191145
217	0x3c10eb04	0.008845095
218	0x3e2e0433	0.1699379
219	0x3d3edaf6	0.046595536
220	0x3e1215a4	0.14266068
221	0x3d6bcb62	0.057567008
222	0x3d738b31	0.059458915
223	0x3e3aa1c0	0.18225765
224	0xbcfb6237	-0.03068648
225	0xbdf2dbe3	-0.11858346
226	0x3ddda73d	0.10822914
227	0x3e95c4ab	0.29251608
228	0x3b393c33	0.0028264641
229	0xbdb1dd0e	-0.08684741
230	0x3db9773a	0.09055944
231	0xbcf1520a	-0.029458065
232	0x3d0fb934	0.035088733
233	0xbd8cdef5	-0.06878463
234	0x3ce91bc2	0.028455619
235	0x3e3a03a9	0.18165459
236	0xbb73fe2e	-0.003723036
237	0x3d8a034b	0.06738909
238	0x3e11f3da	0.14253178
239	0x3ba925fc	0.005161999
240	0xbd9e9555	-0.077433266
241	0xbd2bf467	-0.041981127
242	0x3e088e35	0.13335498
243	0xbcb69043	-0.022285586
244	0x3bf85228	0.007578153
245	0x3dcdc598	0.10047454
246	0xbd24bd1c	-0.04021941
247	0x3e0bf080	0.13665962
248	0x3d73a99d	0.059487928
249	0x3def10b9	0.116731115
250	0x3e2e25a0	0.1700654
251	0x3e7b11d7	0.24518524
252	0x3dd55fe6	0.10418682
253	0x3e1dea0a	0.1542131
254	0xbe73a946	-0.23795041
255	0xbd80fdea	-0.0629843

fc3.weight f4 [4, 256]
0	0xbf4d1a57	-0.80118316
1	0x3ebe6793	0.37188396
2	0x3f524204	0.8213198
3	0x3e07346a	0.13203588
4	0x3c4eeb8f	0.012629404
5	0x3e0e6a21	0.13907672
6	0x3fc28f0a	1.5199902
7	0x3dbd6016	0.092468426
8	0xbe9e0da9	-0.30869797
9	0xbd1de98e	-0.038552813
10	0x3f3debb1	0.7418776
11	0xbeb000d0	-0.3437562
12	0x3dbbe2c3	0.09174111
13	0x3ec25bf7	0.3796079
14	0x3ef3b760	0.47600842
15	0xbf91678c	-1.1359725
16	0xbe3f858a	-0.18703285
17	0xbeab5d28	-0.3346951
18	0xbe02591c	-0.12729305
19	0xbf87a96c	-1.0598578
20	0xbee2d35f	-0.44301888
21	0x3feb5892	1.8386405
22	0xbf9daf61	-1.2319146
23	0x3f4a6811	0.7906504
24	0xbf68f81c	-0.91003585
25	0x3f1d7748	0.61510134
26	0x3f51b239	0.8191257
27	0xbcaa0b24	-0.020757265
28	0xbf5fbe92	-0.8740016
29	0x3e21955f	0.15779637
30	0x3f3f7116	0.7478193
31	0xbe0e47be	-0.13894555
32	0x3e0b5eaf	0.13610338
33	0xbeadb05e	-0.3392362
34	0x3ed122b0	0.40846777
35	0x3f9d0869	1.2268192
36	0xbf656a97	-0.8961577
37	0xbe34803f	-0.17627047
38	0xbeed9d17	-0.46408913
39	0xbf9effab	-1.2421774
40	0x3e25baed	0.16184588
41	0x3d568954	0.05237706
42	0xbf2701a3	-0.6523687
43	0xbf25a2b7	-0.6470141
44	0x3e8a0b65	0.26961818
45	0x3ea2bc52	0.31784302
46	0x3ef76ed7	0.48326752
47	0xbf9d935c	-1.2310596
48	0x3fbee457	1.4913434
49	0xbe9c871d	-0.30571833
50	0xbedf56b9	-0.43620852
51	0x3de3fd66	0.11132316
52	0xbf805f1f	-1.0029029
53	0xbd5ca40c	-0.053867385
54	0xbea58250	-0.32325983
55	0xbf3bdb38	-0.73381376
56	0xbf1b0768	-0.60558176
57	0xbeb0a690	-0.34502077
58	0xbefcf3b5	-0.49404684
59	0x3df5f091	0.12008775
60	0xbe9d5c5a	-0.3073452
61	0x3f217fa9	0.6308542
62	0xbedf4832	-0.43609768
63	0x3f1e1059	0.61743695
64	0x3e882a1b	0.26594624
65	0x3edecb58	0.43514514
66	0x3f1d5c88	0.61469316
67	0xbdbe488e	-0.092911825
68	0x3de28d24	0.11062077
69	0xbe2493b1	-0.16071965
70	0x3f223acc	0.63370967
71	0x3f690c4d	0.91034395
72	0xbf0b40b7	-0.5439562
73	0x3e8a26c5	0.26982704
74	0xbe5b73d4	-0.21430904
75	0x3f049439	0.5178867
76	0xbf82b9c5	-1.0212942
77	0x3f30a6ec	0.690047
78	0xbf6ade5c	-0.91745543
79	0xbefce1d1	-0.49391034
80	0xbf05e07a	-0.5229565
81	0x3f0c1b6c	0.5472934
82	0xbe03811a	-0.12842217
83	0x3f56e6a4	0.8394568
84	0xbf5a23b4	-0.8521073
85	0xbec46641	-0.38359264
86	0x3ec61712	0.38689476
87	0xbf630f1c	-0.8869493
88	0x3f1fd901	0.62440497
89	0xbef01427	-0.46890375
90	0xbdd38612	-0.10328306
91	0x3dba4278	0.09094709
92	0xbf1eb9cc	-0.62002254
93	0x3fcb8d27	1.5902451
94	0xbe9144ef	-0.28372905
95	0xbf1790bb	-0.59205216
96	0x3e8861d5	0.2663714
97	0xbce3f170	-0.027825087
98	0x3f096a7b	0.536781
99	0xbf245c2c	-0.64203143
100	0x3d0e2ceb	0.034710806
101	0x3ee96dc3	0.45591554
102	0x3effee42	0.49986464
103	0xbfb1a8f7	-1.3879689
104	0xbf4ba228	-0.79544306
105	0xbe1c1533	-0.15242462
106	0x3f1b2c1d	0.60614187
107	0xbf91728b	-1.1363081
108	0x3f5bcd0c	0.8585975
109	0x3fc069ee	1.5032327
110	0xbf4cfbc8	-0.8007169
111	0xbe81ed02	-0.25376135
112	0xbf84c075	-1.0371233
113	0x3ef30a40	0.47468758
114	0xbf0374d2	-0.5135013
115	0xbf5ed4e7	-0.87043613
116	0xbf149c83	-0.5805132
117	0x3fe350a1	1.7758981
118	0x3de91977	0.1138181
119	0x3d136ad8	0.035990566
120	0x3f885be5	1.0653044
121	0x3ec457ec	0.3834833
122	0x3f764cd1	0.9621096
123	0x3e85883f	0.2608051
124	0x3fb69015	1.426272
125	0x3e98a2b8	0.29811645
126	0xbe691b43	-0.22764306
127	0x3f26b1db	0.65115136
128	0x3ebb8c0f	0.36630294
129	0x3f0952b5	0.53641826
130	0xbe8774cd	-0.264563
131	0x3dbcc1e1	0.09216667
132	0xbf4f69bf	-0.8102073
133	0xbe3d643d	-0.18495269
134	0x3f8a2a08	1.0794077
135	0x400b8efb	2.1806018
136	0xbe7c6993	-0.24649648
137	0x3e86902e	0.26281875
138	0xbf2b763e	-0.669773
139	0xbf0e2e02	-0.5553895
140	0xbda35538	-0.079752386
141	0xbf304e7a	-0.68869746
142	0xbe8b923a	-0.2726
143	0x3ebb0e18	0.3653419
144	0x3e211c5a	0.15733472
145	0xbf6425cd	-0.8912018
146	0x3f1e1782	0.6175462
147	0xbee7a2f6	-0.45241517
148	0xbea8f79c	-0.3300141
149	0x3ea5da76	0.32393235
150	0x3fb53e96	1.4159725
151	0xbabbfb9d	-0.0014341954
152	0x3ee7d12b	0.4527677
153	0xbf8757fb	-1.0573725
154	0x3f6526f0	0.8951254
155	0x3f44c754	0.7686665
156	0x3d70c1fb	0.058778744
157	0x3f2a201a	0.66455233
158	0xbf1946ea	-0.5987383
159	0xbf6c4fa0	-0.92309
160	0x3ec2fdc8	0.38084245
161	0xbf35effa	-0.710693
162	0xbd296829	-0.0413591
163	0xbebf8dc5	-0.3741285
164	0xbf24015b	-0.6406457
165	0x3f067187	0.5251698
166	0xbf83f6bd	-1.0309674
167	0x3ebfe429	0.3747876
168	0x3ee0d6fa	0.43914014
169	0x3c9a9321	0.018868985
170	0xbe52ecee	-0.20598194
171	0xbe1a8bd8	-0.15092409
172	0xbf5cbf86	-0.8622974
173	0x3f60acee	0.8776387
174	0x3fd120b8	1.633811
175	0x3e2950bb	0.16534702
176	0x3f17ded9	0.59324414
177	0x3ceb81b7	0.028748376
178	0xbec4b337	-0.3841798
179	0x3f6341bc	0.8877218
180	0x3e515b70	0.20445037
181	0x3f80c5fb	1.0060419
182	0x3e7b982e	0.2456977
183	0xbe5ef459	-0.21772899
184	0xbf4adecf	-0.7924623
185	0xbf39f52b	-0.7263972
186	0x3e966b1d	0.29378596
187	0x3d629719	0.05531988
188	0xbf431d42	-0.7621652
189	0x3ec89271	0.39174226
190	0xbf839f3d	-1.0282971
191	0x3f8bf304	1.0933537
192	0xbeb0d888	-0.345402
193	0xbcecfd96	-0.028929513
194	0xbf53a3a1	-0.8267155
195	0x3eaa19c7	0.33222792
196	0x3e7026ec	0.23452348
197	0xbf9b5985	-1.2136694
198	0x3f9267ab	1.1437887
199	0xbceb3e40	-0.028716207
200	0xbfa198cf	-1.2624758
201	0x3f05ca41	0.5226174
202	0xbf56f4a6	-0.83967054
203	0xbe6fd5ba	-0.23421374
204	0xbf25c9ff	-0.64761347
205	0xbe7a496f	-0.24442075
206	0x3d29315a	0.04130683
207	0x3f4f2285	0.8091205
208	0x3fb2b35f	1.396099
209	0x3f46e0fb	0.7768704
210	0xbf24cc7a	-0.64374506
211	0xbf8680f8	-1.0508108
212	0xbe7ee3b1	-0.24891545
213	0x3d3bd024	0.045852795
214	0x3c9a5bf0	0.018842667
215	0x3f79d84e	0.9759568
216	0xbde95c38	-0.113945425
217	0xbf630da9	-0.8869272
218	0x3fb8d20e	1.4439104
219	0x3cb18976	0.021671992
220	0xbf787609	-0.9705511
221	0xbfa385e2	-1.2775233
222	0xbeacef75	-0.3377644
223	0x3f410085	0.7539142
224	0xbf99f697	-1.2028378
225	0x3f993f4c	1.1972442
226	0x3eb7dffd	0.35913077
227	0x3f146304	0.57963586
228	0xbfce0999	-1.6096679
229	0xbd1956df	-0.037436362
230	0xbf28d301	-0.65946966
231	0xbdccd566	-0.1000164
232	0xbf615e85	-0.8803485
233	0x3edae273	0.42750892
234	0x3ed9fb73	0.42574653
235	0xbea9c7f6	-0.3316037
236	0x3f6a771a	0.91587985
237	0xbe856bee	-0.26058906
238	0xbf7ed1f3	-0.9953911
239	0xbf082ef9	-0.53196675
240	0xbf33273a	-0.6998173
241	0xbe8f8446	-0.28030604
242	0xbcd4caa3	-0.025975531
243	0x3ebcc6a5	0.36870304
244	0xbe4687a9	-0.19387688
245	0xbf75c8cb	-0.9600951
246	0x3f2560d2	0.6460086
247	0x3faa5933	1.3308471
248	0x3f07f0b2	0.53101647
249	0xbda54801	-0.08070374
250	0xbe0ad024	-0.13555962
251	0x3e707914	0.23483688
252	0x3e471571	0.19441773
253	0xbec28ac3	-0.37996492
254	0x3edc2d83	0.43003473
255	0x3c0e915d	0.0087016495

fc3.bias f4 [4]
0	0x3bbc1799	0.0057401177
1	0xbc32242c	-0.010872882
2	0xbc5fb752	-0.013654547
3	0x3c19f44c	0.009396624

bn1.weight f4 [128]
0	0x3eb06b38	0.344568
1	0x3ded6660	0.11591792
2	0x3d22eff0	0.039779603
3	0x3ed6ba70	0.41939116
4	0x3f162755	0.58653766
5	0x3f590f11	0.84788615
6	0x3e182230	0.14856791
7	0x3f481afb	0.7816617
8	0x3ec5d928	0.3864224
9	0x3f487523	0.78303736
10	0x3d781db0	0.060575187
11	0x3f4c8a78	0.79898787
12	0x3f557bf0	0.8339224
13	0x3cf2e0c0	0.029648185
14	0x3f3990d0	0.7248659
15	0x3dfb4340	0.12268686
16	0x3e752b64	0.23942333
17	0x3f79f6c4	0.9764216
18	0x3f5d026d	0.86331826
19	0x3f39648f	0.72419065
20	0x3e9f6e54	0.3113886
21	0x3f56ca39	0.8390232
22	0x3f01c4ac	0.5069072
23	0x3e865670	0.26237822
24	0x3f7c799c	0.9862306
25	0x3f56a754	0.8384907
26	0x3f1a1787	0.6019215
27	0x3f7ddbaf	0.99163336
28	0x3e9d4468	0.30716252
29	0x3f44ae3a	0.7682835
30	0x3f2ae950	0.66762257
31	0x3f62a74e	0.88536537
32	0x3f78a6ab	0.97129315
33	0x3b25d800	0.0025305748
34	0x3f5e99a4	0.86953187
35	0x3ef2fcc8	0.47458482
36	0x3f25c61a	0.64755404
37	0x3ea31fc2	0.31860167
38	0x3ec117e6	0.37713546
39	0x3ec9f40c	0.39444005
40	0x3f2f662b	0.6851527
41	0x3f22748a	0.63459074
42	0x3eb31fd0	0.3498521
43	0x3e294960	0.16531897
44	0x3f0d10cc	0.55103755
45	0x3f7209c5	0.9454616
46	0x3e6acca4	0.22929627
47	0x3f716476	0.94293916
48	0x3f1c25e0	0.6099529
49	0x3eeb1492	0.4591413
50	0x3f76748f	0.96271604
51	0x3e799f38	0.24377143
52	0x3eda2ca4	0.42612183
53	0x3f02327c	0.50858283
54	0x3e045744	0.12923914
55	0x3e968ccc	0.29404294
56	0x3e37ffc0	0.17968655
57	0x3f3bc45d	0.733465
58	0x3e96f25e	0.29481786
59	0x3f3c83f2	0.7363883
60	0x3ed9f1d0	0.425673
61	0x3ebe3ce2	0.37155825
62	0x3f1e0e0f	0.617402
63	0x3dbc8e58	0.092068374
64	0x3e2a166c	0.16610116
65	0x3f407223	0.7517416
66	0x3e3ead8c	0.1862089
67	0x3f49d25e	0.7883662
68	0x3f1d2db0	0.6139784
69	0x3f0b56ee	0.5442952
70	0x3f4d7fd0	0.8027315
71	0x3f43e043	0.7651407
72	0x3d574510	0.052556098
73	0x3f4eadae	0.80733764
74	0x3f46d888	0.7767415
75	0x3cbdd480	0.023172617
76	0x3f41bdb7	0.75680107
77	0x3e090728	0.13381636
78	0x3f471b85	0.77776366
79	0x3e998dc4	0.2999097
80	0x3eab1e9a	0.33421785
81	0x3dbe2640	0.09284639
82	0x3ea89db2	0.32932812
83	0x3f7e2104	0.9926913
84	0x3f08c8e1	0.53431517
85	0x3f46d818	0.7767348
86	0x3d8a2c10	0.067466855
87	0x3e9df752	0.30852753
88	0x3f0d627b	0.55228394
89	0x3bd53980	0.0065070987
90	0x3f4a0f28	0.78929377
91	0x3f3ee112	0.7456218
92	0x3de1ff50	0.11035025
93	0x3d990d38	0.074732244
94	0x3c669380	0.014073253
95	0x3eb8ffea	0.36132747
96	0x3f7632ab	0.96171063
97	0x3f395b7a	0.7240521
98	0x3e99bb54	0.30025733
99	0x3f4320c8	0.76221895
100	0x3ea1470c	0.31499517
101	0x3f1a749b	0.60334176
102	0x3f02587e	0.5091628
103	0x3f022400	0.5083618
104	0x3f6eddf8	0.9330745
105	0x3e3b7de8	0.18309748
106	0x3f7932ee	0.9734334
107	0x3ea014a6	0.31265754
108	0x3f6dbaf6	0.92863405
109	0x3f1cfed0	0.61326313
110	0x3ed614e8	0.41812825
111	0x3efc5d62	0.49289995
112	0x3ef4507e	0.4771766
113	0x3f4b999c	0.79531264
114	0x3eb8ab8a	0.36068374
115	0x3e2d29f4	0.16910535
116	0x3e9acbd8	0.30233645
117	0x3e91674c	0.28399122
118	0x3ca4d060	0.020118892
119	0x3e1cb3cc	0.15302962
120	0x3f38ff1b	0.7226426
121	0x3f763cc5	0.96186477
122	0x3e24031c	0.16016811
123	0x3f315dab	0.6928355
124	0x3f0b44ea	0.5440203
125	0x3f1e9159	0.6194053
126	0x3e8abc94	0.27097
127	0x3f36ee63	0.714575

bn1.bias f4 [128]
0	0x00000000	0.0
1	0x00000000	0.0
2	0x00000000	0.0
3	0x00000000	0.0
4	0x00000000	0.0
5	0x00000000	0.0
6	0x00000000	0.0
7	0x00000000	0.0
8	0x00000000	0.0
9	0x00000000	0.0
10	0x00000000	0.0
11	0x00000000	0.0
12	0x00000000	0.0
13	0x00000000	0.0
14	0x00000000	0.0
15	0x00000000	0.0
16	0x00000000	0.0
17	0x00000000	0.0
18	0x00000000	0.0
19	0x00000000	0.0
20	0x00000000	0.0
21	0x00000000	0.0
22	0x00000000	0.0
23	0x00000000	0.0
24	0x00000000	0.0
25	0x00000000	0.0
26	0x00000000	0.0
27	0x00000000	0.0
28	0x00000000	0.0
29	0x00000000	0.0
30	0x00000000	0.0
31	0x00000000	0.0
32	0x00000000	0.0
33	0x00000000	0.0
34	0x00000000	0.0
35	0x00000000	0.0
36	0x00000000	0.0
37	0x00000000	0.0
38	0x00000000	0.0
39	0x00000000	0.0
40	0x00000000	0.0
41	0x00000000	0.0
42	0x00000000	0.0
43	0x00000000	0.0
44	0x00000000	0.0
45	0x00000000	0.0
46	0x00000000	0.0
47	0x00000000	0.0
48	0x00000000	0.0
49	0x00000000	0.0
50	0x00000000	0.0
51	0x00000000	0.0
52	0x00000000	0.0
53	0x00000000	0.0
54	0x00000000	0.0
55	0x00000000	0.0
56	0x00000000	0.0
57	0x00000000	0.0
58	0x00000000	0.0
59	0x00000000	0.0
60	0x00000000	0.0
61	0x00000000	0.0
62	0x00000000	0.0
63	0x00000000	0.0
64	0x00000000	0.0
65	0x00000000	0.0
66	0x00000000	0.0
67	0x00000000	0.0
68	0x00000000	0.0
69	0x00000000	0.0
70	0x00000000	0.0
71	0x00000000	0.0
72	0x00000000	0.0
73	0x00000000	0.0
74	0x00000000	0.0
75	0x00000000	0.0
76	0x00000000	0.0
77	0x00000000	0.0
78	0x00000000	0.0
79	0x00000000	0.0
80	0x00000000	0.0
81	0x00000000	0.0
82	0x00000000	0.0
83	0x00000000	0.0
84	0x00000000	0.0
85	0x00000000	0.0
86	0x00000000	0.0
87	0x00000000	0.0
88	0x00000000	0.0
89	0x00000000	0.0
90	0x00000000	0.0
91	0x00000000	0.0
92	0x00000000	0.0
93	0x00000000	0.0
94	0x00000000	0.0
95	0x00000000	0.0
96	0x00000000	0.0
97	0x00000000	0.0
98	0x00000000	0.0
99	0x00000000	0.0
100	0x00000000	0.0
101	0x00000000	0.0
102	0x00000000	0.0
103	0x00000000	0.0
104	0x00000000	0.0
105	0x00000000	0.0
106	0x00000000	0.0
107	0x00000000	0.0
108	0x00000000	0.0
109	0x00000000	0.0
110	0x00000000	0.0
111	0x00000000	0.0
112	0x00000000	0.0
113	0x00000000	0.0
114	0x00000000	0.0
115	0x00000000	0.0
116	0x00000000	0.0
117	0x00000000	0.0
118	0x00000000	0.0
119	0x00000000	0.0
120	0x00000000	0.0
121	0x00000000	0.0
122	0x00000000	0.0
123	0x00000000	0.0
124	0x00000000	0.0
125	0x00000000	0.0
126	0x00000000	0.0
127	0x00000000	0.0

bn1.running_mean f4 [128]
0	0x00000000	0.0
1	0x00000000	0.0
2	0x00000000	0.0
3	0x00000000	0.0
4	0x00000000	0.0
5	0x00000000	0.0
6	0x00000000	0.0
7	0x00000000	0.0
8	0x00000000	0.0
9	0x00000000	0.0
10	0x00000000	0.0
11	0x00000000	0.0
12	0x00000000	0.0
13	0x00000000	0.0
14	0x00000000	0.0
15	0x00000000	0.0
16	0x00000000	0.0
17	0x00000000	0.0
18	0x00000000	0.0
19	0x00000000	0.0
20	0x00000000	0.0
21	0x00000000	0.0
22	0x00000000	0.0
23	0x00000000	0.0
24	0x00000000	0.0
25	0x00000000	0.0
26	0x00000000	0.0
27	0x00000000	0.0
28	0x00000000	0.0
29	0x00000000	0.0
30	0x00000000	0.0
31	0x00000000	0.0
32	0x00000000	0.0
33	0x00000000	0.0
34	0x00000000	0.0
35	0x00000000	0.0
36	0x00000000	0.0
37	0x00000000	0.0
38	0x00000000	0.0
39	0x00000000	0.0
40	0x00000000	0.0
41	0x00000000	0.0
42	0x00000000	0.0
43	0x00000000	0.0
44	0x00000000	0.0
45	0x00000000	0.0
46	0x00000000	0.0
47	0x00000000	0.0
48	0x00000000	0.0
49	0x00000000	0.0
50	0x00000000	0.0
51	0x00000000	0.0
52	0x00000000	0.0
53	0x00000000	0.0
54	0x00000000	0.0
55	0x00000000	0.0
56	0x00000000	0.0
57	0x00000000	0.0
58	0x00000000	0.0
59	0x00000000	0.0
60	0x00000000	0.0
61	0x00000000	0.0
62	0x00000000	0.0
63	0x00000000	0.0
64	0x00000000	0.0
65	0x00000000	0.0
66	0x00000000	0.0
67	0x00000000	0.0
68	0x00000000	0.0
69	0x00000000	0.0
70	0x00000000	0.0
71	0x00000000	0.0
72	0x00000000	0.0
73	0x00000000	0.0
74	0x00000000	0.0
75	0x00000000	0.0
76	0x00000000	0.0
77	0x00000000	0.0
78	0x00000000	0.0
79	0x00000000	0.0
80	0x00000000	0.0
81	0x00000000	0.0
82	0x00000000	0.0
83	0x00000000	0.0
84	0x00000000	0.0
85	0x00000000	0.0
86	0x00000000	0.0
87	0x00000000	0.0
88	0x00000000	0.0
89	0x00000000	0.0
90	0x00000000	0.0
91	0x00000000	0.0
92	0x00000000	0.0
93	0x00000000	0.0
94	0x00000000	0.0
95	0x00000000	0.0
96	0x00000000	0.0
97	0x00000000	0.0
98	0x00000000	0.0
99	0x00000000	0.0
100	0x00000000	0.0
101	0x00000000	0.0
102	0x00000000	0.0
103	0x00000000	0.0
104	0x00000000	0.0
105	0x00000000	0.0
106	0x00000000	0.0
107	0x00000000	0.0
108	0x00000000	0.0
109	0x00000000	0.0
110	0x00000000	0.0
111	0x00000000	0.0
112	0x00000000	0.0
113	0x00000000	0.0
114	0x00000000	0.0
115	0x00000000	0.0
116	0x00000000	0.0
117	0x00000000	0.0
118	0x00000000	0.0
119	0x00000000	0.0
120	0x00000000	0.0
121	0x00000000	0.0
122	0x00000000	0.0
123	0x00000000	0.0
124	0x00000000	0.0
125	0x00000000	0.0
126	0x00000000	0.0
127	0x00000000	0.0

bn1.running_var f4 [128]
0	0x3f800000	1.0
1	0x3f800000	1.0
2	0x3f800000	1.0
3	0x3f800000	1.0
4	0x3f800000	1.0
5	0x3f800000	1.0
6	0x3f800000	1.0
7	0x3f800000	1.0
8	0x3f800000	1.0
9	0x3f800000	1.0
10	0x3f800000	1.0
11	0x3f800000	1.0
12	0x3f800000	1.0
13	0x3f800000	1.0
14	0x3f800000	1.0
15	0x3f800000	1.0
16	0x3f800000	1.0
17	0x3f800000	1.0
18	0x3f800000	1.0
19	0x3f800000	1.0
20	0x3f800000	1.0
21	0x3f800000	1.0
22	0x3f800000	1.0
23	0x3f800000	1.0
24	0x3f800000	1.0
25	0x3f800000	1.0
26	0x3f800000	1.0
27	0x3f800000	1.0
28	0x3f800000	1.0
29	0x3f800000	1.0
30	0x3f800000	1.0
31	0x3f800000	1.0
32	0x3f800000	1.0
33	0x3f800000	1.0
34	0x3f800000	1.0
35	0x3f800000	1.0
36	0x3f800000	1.0
37	0x3f800000	1.0
38	0x3f800000	1.0
39	0x3f800000	1.0
40	0x3f800000	1.0
41	0x3f800000	1.0
42	0x3f800000	1.0
43	0x3f800000	1.0
44	0x3f800000	1.0
45	0x3f800000	1.0
46	0x3f800000	1.0
47	0x3f800000	1.0
48	0x3f800000	1.0
49	0x3f800000	1.0
50	0x3f800000	1.0
51	0x3f800000	1.0
52	0x3f800000	1.0
53	0x3f800000	1.0
54	0x3f800000	1.0
55	0x3f800000	1.0
56	0x3f800000	1.0
57	0x3f800000	1.0
58	0x3f800000	1.0
59	0x3f800000	1.0
60	0x3f800000	1.0
61	0x3f800000	1.0
62	0x3f800000	1.0
63	0x3f800000	1.0
64	0x3f800000	1.0
65	0x3f800000	1.0
66	0x3f800000	1.0
67	0x3f800000	1.0
68	0x3f800000	1.0
69	0x3f800000	1.0
70	0x3f800000	1.0
71	0x3f800000	1.0
72	0x3f800000	1.0
73	0x3f800000	1.0
74	0x3f800000	1.0
75	0x3f800000	1.0
76	0x3f800000	1.0
77	0x3f800000	1.0
78	0x3f800000	1.0
79	0x3f800000	1.0
80	0x3f800000	1.0
81	0x3f800000	1.0
82	0x3f800000	1.0
83	0x3f800000	1.0
84	0x3f800000	1.0
85	0x3f800000	1.0
86	0x3f800000	1.0
87	0x3f800000	1.0
88	0x3f800000	1.0
89	0x3f800000	1.0
90	0x3f800000	1.0
91	0x3f800000	1.0
92	0x3f800000	1.0
93	0x3f800000	1.0
94	0x3f800000	1.0
95	0x3f800000	1.0
96	0x3f800000	1.0
97	0x3f800000	1.0
98	0x3f800000	1.0
99	0x3f800000	1.0
100	0x3f800000	1.0
101	0x3f800000	1.0
102	0x3f800000	1.0
103	0x3f800000	1.0
104	0x3f800000	1.0
105	0x3f800000	1.0
106	0x3f800000	1.0
107	0x3f800000	1.0
108	0x3f800000	1.0
109	0x3f800000	1.0
110	0x3f800000	1.0
111	0x3f800000	1.0
112	0x3f800000	1.0
113	0x3f800000	1.0
114	0x3f800000	1.0
115	0x3f800000	1.0
116	0x3f800000	1.0
117	0x3f800000	1.0
118	0x3f800000	1.0
119	0x3f800000	1.0
120	0x3f800000	1.0
121	0x3f800000	1.0
122	0x3f800000	1.0
123	0x3f800000	1.0
124	0x3f800000	1.0
125	0x3f800000	1.0
126	0x3f800000	1.0
127	0x3f800000	1.0
