checkpoint_critic_700.pth (torch_old, 158206 bytes, 9 tensors)

fcs1.weight f4 [128, 33]
00000000: 69b7 643d 661e 22bc 5933 553d 6a91 11bc
00000010: b8ae 433c 5d16 f7bb a068 1e3c 40d5 87bb
00000020: 10d7 d53b 6f7e d73a f757 2e3c 07ee 323c
00000030: ae1f fd3b d84f 01be dee5 8cbd 9399 03bd
00000040: 4e00 70bb d3d3 5c3c 528e 043c 9705 06bc
00000050: 9f24 8f3b 6f0f 97bb 9242 66bc 4a53 54bc
00000060: 3f2f 0fbc 9aac 44bd 1131 cb3c 7749 f5bc
00000070: 1feb 8d3d de5d 0200 7749 f53c 3f1d 0380
00000080: 130b ba3d d763 913c 9a43 fc3c f792 82bb
00000090: 91c3 8bbc e53e 9cbb 0ebf 1c3c 8317 bcbb
000000a0: 4b66 19bd efdc 033c 3fb9 80ba 3b39 0f3c
000000b0: dc60 b33c 8771 233c a966 833b 122c ac3d
000000c0: a59d 2fbd 2b4d 11bd 9596 4fbc a2ab 65bc
000000d0: 4b04 44bd e448 8d3c 0b10 823c a122 4bbc
000000e0: d8ab 683c c92a c53c b3dd e83b 631b c33d
000000f0: 94ef cb3a cf93 823c 318c 0600 94ef cbba
00000100: a3ae 0000 472b 1dbd 4680 4136 2a30 8437
00000110: d959 1836 91d4 f035 293a 22b3 e80b 8fb5
00000120: ba43 51b5 2ef3 b536 2320 1bb6 c577 64b5
00000130: c45c 0db6 ba06 5536 c01b 8735 49c9 59b7
00000140: caf8 4237 04be e336 befa db35 598c 01b4
00000150: 2701 0c35 d28d 2ab4 cb1d c036 0c7b 48b6
00000160: c933 3e36 10e8 8634 eefe 83b6 b3da 2637
00000170: 0fc5 1337 08d4 dab5 613b 57b6 9e48 0380
00000180: 08d4 da35 dc80 0600 a4cd 6635 3c33 11bd
00000190: 797e 4c3b 0ee1 57bc 12f0 3bbc 15cb 593a
000001a0: 2baf febb 32b5 543c bd5d a73c 24af 963c
000001b0: 4fe4 a33b e0d1 79bb 9ea9 dbbc f9ba 80bc
000001c0: 5817 453c 8861 25bd 98cb 65bd 4774 423c
000001d0: 1cb2 adb6 2a7b fc3b 97d4 cd3c 8407 4ebd
000001e0: 9a59 843d b6a1 80bc da10 d8bc c281 c53b
000001f0: 9376 863b 01fb a0bd c681 03bd 9f13 383d
00000200: 5028 0200 c681 033d f0bc 0400 76a4 8e3d
00000210: 34de c73d 110a aebd 92fb 6b3c 91d6 1f3a
00000220: 1cf8 8e3c 2dfa 563c 0ff9 66bb 67eb 273c
00000230: a7e5 19bb dc35 14bc cc21 163c f8c9 45bc
00000240: 3dfb 44bb 4b4a bbbd 4020 35bd 7251 123b
00000250: 2404 9aba 81e7 97bb 1151 7f3c e9aa c2bb
00000260: 5d40 4dbc ac4e 1e3d 8713 533a c227 f7bc
00000270: 0916 193d df3a f63c 2023 4ebb 657b 03be
00000280: 198e e33b a33c 0100 657b 033e 9b79 0380
00000290: 1b44 af3c 9441 be38 60c9 1bbd 1f75 8f3b
000002a0: ec83 ce3c acd4 0abc 4e58 033c e930 493c
000002b0: 110b 74bb 64ea 883b d1b1 563b ce16 0abb
000002c0: 61c1 2cbb d325 013d c81a 3d3d 8f65 083d
000002d0: e846 0b3d b678 88bc 3f80 bebb 35de 3abb
000002e0: 03a1 083d 9a9f 233c d27f f1bb 3358 db3b
000002f0: 05ed 0cbc dc66 943a 7156 973c bcaf 0ebe
00000300: f7a4 69bd 487c 723d baf2 0300 f7a4 693d
00000310: c5b8 0080 6971 19bd 36c2 943d 0447 613d
00000320: 882f 48bd 5e3f aabc 5cd5 3e3c c0f3 de3b
00000330: 38c5 15bc 158f ad3c 8cdf b5bc 9da3 71ba
00000340: 0e44 413c 17dd 8fbc cc77 fdbb 765b 793d
00000350: a64d 8b3d e32b 04bd 86a5 5cbc b4fa 9bbb
00000360: 952d 72bb 01e7 90bc f550 1dbc 2224 0a3c
00000370: 6380 71bc ea35 1c3b 252b fb3b 28c4 7ebc
00000380: 6670 e13c 251f deba 63da 5bb9 5197 0100
00000390: 251f de3a ad1c 0080 e009 25bc 580b 9f34
000003a0: 5aee e937 be34 8d36 49a2 cab3 6f6b 2235
000003b0: 56cc 42b4 5662 24b5 50d6 b3b4 709e 9734
000003c0: 085f a0b4 4bfd c733 3fc1 5736 26c3 f635
000003d0: 8d79 4cb6 edbb 9f37 553c 2a37 bcec 2c35
000003e0: 8226 25b5 5fc5 12b4 b362 e433 a647 6736
000003f0: 1c78 dbb5 4aa5 7d34 8974 ec34 e61e 07b6
0.055838976 -0.009894943 0.052050922 -0.008884767 0.011943512 -0.0075405077 0.009668499 -0.0041452944
0.0065258816 0.0016440878 0.01064109 0.010921008 0.007724724 -0.12628114 -0.06879781 -0.03212888
-0.0036621275 0.013478237 0.008090572 -0.008180044 0.0043683792 -0.004609994 -0.014053958 -0.012959311
-0.008739292 -0.04801617 0.02480367 -0.029942257 0.069296114 2.17344e-40 0.029942257 -2.85998e-40
0.090841435 0.017747803 0.030793954 -0.0039848047 -0.017061027 -0.00476824 0.009567035 -0.0057401075
-0.03745107 0.00804828 -0.0009820833 0.008741672 0.021896772 0.0099757975 0.004010041 0.08406843
-0.04287495 -0.035473984 -0.012670179 -0.014017971 -0.047855657 0.017246671 0.01587679 -0.012398393
0.014201127 0.024068253 0.0071065067 0.09526708 0.0015559071 0.015939621 6.01304e-40 -0.0015559071
6.2648e-41 -0.03837135 2.8833906e-06 1.5758054e-05 2.2702063e-06 1.7943258e-06 -3.777146e-08 -1.0657795e-06
-7.795712e-07 5.42253e-06 -2.3115506e-06 -8.5110906e-07 -2.1064634e-06 3.1743389e-06 1.006636e-06 -1.2981073e-05
1.1621227e-05 6.787248e-06 1.6389747e-06 -1.206512e-07 5.215574e-07 -1.5884078e-07 5.7255143e-06 -2.9873945e-06
2.834235e-06 2.5128293e-07 -3.933782e-06 9.945291e-06 8.807764e-06 -1.6303975e-06 -3.207206e-06 -3.01557e-40
1.6303975e-06 5.97239e-40 8.5980923e-07 -0.03544925 0.0031203313 -0.013176216 -0.011470811 0.00083081546
-0.0077723465 0.012982653 0.02043044 0.01839406 0.0050015817 -0.003811948 -0.026814278 -0.015714156
0.012029491 -0.040376216 -0.056102365 0.011868543 -5.1765364e-06 0.007705112 0.025125785 -0.050300136
0.06462403 -0.01570211 -0.026375223 0.006027431 0.0041034906 -0.07860375 -0.032106183 0.044940587
1.98132e-40 0.032106183 4.3512e-40 0.06964962 0.09759179 -0.08498014 0.014403241 0.00060973415
0.017452292 0.01312117 -0.0035243665 0.010248995 -0.002348283 -0.009046044 0.009163331 -0.012072079
-0.0030056976 -0.0914503 -0.04422021 0.0022326377 -0.0011750502 -0.0046357517 0.015583293 -0.0059407842
-0.012527552 0.038649246 0.0008051921 -0.030170325 0.03737453 0.030057369 -0.0031454042 -0.1284004
0.0069444296 1.13588e-40 0.1284004 -3.1913e-40 0.02139478 9.072121e-05 -0.038033843 0.0043779756
0.02520939 -0.0084735565 0.008016659 0.0122797275 -0.0037238041 0.004178332 0.0032759795 -0.0021070722
-0.002636038 0.031530213 0.04616812 0.03329998 0.03400317 -0.016659122 -0.005813628 -0.0028513793
0.033356678 0.009986782 -0.0073699737 0.006693864 -0.008601432 0.0011322158 0.018473836 -0.13934225
-0.05704209 0.059200555 3.6258e-40 0.05704209 -6.6283e-41 -0.037461672 0.07263605 0.054999366
-0.048873454 -0.020782169 0.0116475485 0.0068039596 -0.009141259 0.02118639 -0.022201322 -0.00092178007
0.011796011 -0.017561479 -0.007735228 0.06087824 0.0680192 -0.032268416 -0.013467198 -0.0047601108
-0.0036953439 -0.017688276 -0.009601821 0.008431466 -0.014740082 0.0023835846 0.0076650553 -0.015549697
0.027519416 -0.0016946538 -0.00020966823 1.46118e-40 0.0016946538 -1.0287e-41 -0.010073155 2.9624312e-07
2.7886756e-05 4.2082675e-06 -9.4358775e-08 6.050604e-07 -1.8141995e-07 -6.123786e-07 -3.349728e-07 2.824122e-07
-2.9871467e-07 9.312733e-08 3.214998e-06 1.8385224e-06 -3.046912e-06 1.9041787e-05 1.0146837e-05 6.4419487e-07
-6.1523326e-07 -1.3669113e-07 1.06350306e-07 3.4463387e-06 -1.6351728e-06 2.3622593e-07 4.4043216e-07 -2.0134553e-06

fcs1.bias f4 [128]
00000000: 7649 f53c 94ef cbba 00d4 da35 c681 033d
00000010: 657b 033e f8a4 693d 111f de3a 673c cbb5
00000020: ee4f 2d3c 09b8 6dbd 78b7 8bbb 1727 343d
00000030: fcf5 9cbd a227 a73c bfb4 91b9 e53d 80bc
00000040: 1b8f adbd e9cd 80bb 4a17 e6ba b6d3 f8b4
00000050: 2d2f 98bc 1999 bcbd 655a 8fbc c8a8 d83c
00000060: f634 24bd 6ca3 93b8 b955 acb7 607c c43c
00000070: a752 4fb8 7138 053d 6aa7 c8b9 08b1 3fb5
00000080: 1832 4cbd 9588 b4ba 33af e33c 583e 3dbc
00000090: 475b 01bb a94d 54bb 85d1 44bb e75d 48bd
000000a0: fac1 c53c 3337 51bc 043f 73b9 9a1f f6b4
000000b0: d495 af3c 30ec 433d 7349 5c3d 4316 af3c
000000c0: 27fd 7eb8 cb83 e9b8 c371 d43c 89b1 86bd
000000d0: f9c3 5cb8 48ba 923c c651 b4b4 9424 bb3c
000000e0: 4882 a0bc 4f29 0dbc 3c1a 17bd 90c4 86bb
000000f0: 29ae 08bd 9f06 81b8 f7a5 a8bd 3ecc 8c3c
00000100: abca bd3c 3f6b fa3c 7450 20b7 f914 8e3e
00000110: 5142 81bc 85f5 65bb 17d7 31bd e465 01ba
00000120: f4a0 38bb 8c68 bf3c 2f50 94b7 6198 ebba
00000130: 46fb 703c 1bc7 17bc edf8 83bd 3394 4d3d
00000140: cce3 b23c e194 75ba 0e24 10bd aec1 553c
00000150: d277 b1bc bf27 ce3a 8859 febc c122 e6b2
00000160: e8b8 eebc 567b 5bb0 a7c2 3aba e97a 73bd
00000170: a02e 55bc e5ee 293d 384e 73ba 598c 1abd
00000180: 09b4 be3c 0964 6b3c 6eff 95bd d0f6 4bbd
00000190: f0c2 f53c 1779 a8b5 ef01 63b8 61d0 e23c
000001a0: 451b 853d 0647 b0bc 7294 5c3b a37a 85b9
000001b0: 931c b1bb e2c7 1ebd 64d8 9ebd 1c9b 46bd
000001c0: 4ca9 21ba 5bef 93bc 8a5a 53b6 68ba dcbd
000001d0: acd3 90b7 d3ce 03bc 2ca4 823c b732 b1b8
000001e0: bf1e 80bc d3ee 353c 7681 0fbc 7f6e f6b8
000001f0: 06ac 96bd 6540 94b8 2361 e73c c987 b1bb
0.029942255 -0.0015559071 1.6303966e-06 0.032106183 0.1284004 0.057042092 0.0016946514 -1.5142258e-06
0.010578139 -0.058036838 -0.0042638145 0.04398259 -0.07664105 0.02040464 -0.00027791222 -0.015654514
-0.08474561 -0.0039307964 -0.0017554548 -4.634764e-07 -0.018577183 -0.092088886 -0.017499158 0.026447669
-0.04008957 -7.039946e-05 -2.0543916e-05 0.023985088 -4.9429622e-05 0.03252453 -0.00038271706 -7.141066e-07
-0.04985246 -0.0013773615 0.027793502 -0.011550508 -0.0019738243 -0.0032394922 -0.003003211 -0.048917677
0.024140347 -0.012769508 -0.00023197761 -4.5844064e-07 0.021433748 0.047832668 0.053780984 0.02137292
-6.0794086e-05 -0.00011134854 0.025933152 -0.06576831 -5.26346e-05 0.017911091 -3.358711e-07 0.02284459
-0.019593373 -0.008615806 -0.036890253 -0.0041127875 -0.033369217 -6.1524326e-05 -0.0823478 0.017187234
0.023167929 0.030568717 -9.555475e-06 0.27750376 -0.015778692 -0.0035088968 -0.043418016 -0.00049361424
-0.0028172107 0.023365282 -1.7680313e-05 -0.001797449 0.014708346 -0.009263779 -0.06443963 0.050190162
0.021837138 -0.0009368193 -0.035190634 0.013046665 -0.02166358 0.0015728398 -0.031048551 -2.6791328e-08
-0.029140905 -7.9847007e-10 -0.00071243424 -0.059443388 -0.013011605 0.041487593 -0.000928137 -0.037731502
0.023279207 0.014367112 -0.0732411 -0.049795926 0.03000018 -1.2552217e-06 -5.412282e-05 0.027687253
0.06499342 -0.021518242 0.0033657816 -0.00025459108 -0.0054050176 -0.03876484 -0.07756117 -0.048487768
-0.000616689 -0.01805847 -3.149415e-06 -0.10777742 -1.7264705e-05 -0.008044916 0.015947424 -8.449464e-05
-0.01563966 0.011104303 -0.008758893 -0.000117507756 -0.073570296 -7.069184e-05 0.02824456 -0.005417798

bn1.weight f4 [128]
00000000: e09e 3c3e 8d3a 053f f039 223f be77 123f
00000010: 8e7e a53e c808 823e 8e03 203f 6083 203d
00000020: d632 1b3f 2215 203f f8ef ec3d ac75 523f
00000030: d0a2 643d 503f 5b3e 0089 893b 2258 723f
00000040: 0bd4 393f e79c 0e3f 10a3 143d e8d5 473f
00000050: 1008 733e 0043 9d3d 34da 653e 2e48 133f
00000060: d02d 1f3d 80b5 783f d1af 223f 94f9 7d3f
00000070: 9ac2 f63e 3d3c 373f b28c 3c3f c51a 553f
00000080: 7aff 363f 08b3 cb3d 813e 683f 74f5 0f3e
00000090: 4216 963e d4ee d23e 726b 243f ee77 513f
000000a0: 2099 933e 9aa7 f33e 4870 c03e 0ec0 3c3f
000000b0: 80f3 123f 7020 df3d 3051 0e3d 4fe8 433f
000000c0: 42c1 f93e ad42 743f 0bdc 123f a004 733f
000000d0: 87ad 573f c03c 153d 8b57 723f 8064 473c
000000e0: 98b7 f03d 55cb 5c3f ff46 673f 8a27 0c3f
000000f0: f2a4 6b3f b8c8 783f 7d56 7d3f 5cb9 df3e
00000100: 1e3e 743f 57d8 503f 760f 653f dcb6 e33e
00000110: 155c 363f f56c 083f 07b2 373f 3c7a 203f
00000120: 775f 5a3f bdb4 743f d0b7 673f 78d1 1b3f
00000130: e2a8 c53e f05f 6a3e c330 463f 1806 3d3e
00000140: 76f3 083f 4011 f23e 929e 2e3f d9d7 0c3f
00000150: 481e 473f a0cd fb3d 5651 1a3f 991b 293f
00000160: 80fd 213e c812 2a3f efa3 6e3f 24d5 be3e
00000170: 1046 f73d 6028 9e3e 33a6 753f 982d 3d3f
00000180: ec6c c03e 94ce 643e ea2e 0b3f 70b5 7e3d
00000190: 2f28 223f 2864 b93d 5419 bb3e f1e3 143f
000001a0: a486 4f3e 8a8b 6d3f f514 243f 691b 2c3f
000001b0: 85be 443f 3d94 7e3f 0132 093f d836 c73e
000001c0: c00a 083f 25bb 5f3f 402c d93d a49c d03e
000001d0: 7809 3a3f bc67 6a3f c1f7 323f 6e93 e33e
000001e0: a850 103f 48a4 b03e 03ec 7c3f 0d9c 043f
000001f0: e5d4 3b3f 5850 723e bd11 783f 7562 6c3f
0.18419981 0.52042466 0.63369656 0.5721396 0.32323116 0.25397325 0.62505424 0.03918779
0.60624444 0.62532246 0.11569208 0.82210803 0.055819333 0.2141087 0.00419724 0.9466573
0.72589177 0.55708164 0.03628832 0.7806077 0.23733544 0.07678795 0.22446519 0.5753201
0.03886205 0.9715195 0.63549525 0.9920895 0.48195344 0.7157629 0.73652184 0.8324397
0.71483576 0.09946257 0.90720373 0.14058477 0.29313856 0.41197836 0.6422645 0.81823623
0.28827763 0.47588807 0.37585664 0.7373055 0.574028 0.10894859 0.034745395 0.7652635
0.48780257 0.9541424 0.5736701 0.9492893 0.84249157 0.03643489 0.9466483 0.012169957
0.11753768 0.8624776 0.90342706 0.5474783 0.9204856 0.9718127 0.98960096 0.43696105
0.95407283 0.8158011 0.89476717 0.44475448 0.71234256 0.53291255 0.71756023 0.62686515
0.8530192 0.95588285 0.9051485 0.608665 0.3860541 0.2288816 0.77418154 0.18459356
0.5349649 0.47278786 0.6821071 0.5501686 0.7778058 0.12295079 0.6028036 0.66057736
0.15819359 0.6643491 0.9321889 0.37271988 0.1207391 0.3089018 0.95956725 0.73897696
0.375831 0.22344428 0.5436846 0.06218475 0.63342565 0.090523064 0.3654276 0.5816031
0.20266205 0.92791045 0.6409448 0.67229325 0.7685321 0.99444944 0.53591925 0.3890903
0.53141403 0.87394935 0.10604143 0.40744507 0.726707 0.91564536 0.6990929 0.44448417
0.5637307 0.34500337 0.98797625 0.51800615 0.73371726 0.23663461 0.96902066 0.92337734

bn1.bias f4 [128]
00000000: 0000 0000 0000 0000 0000 0000 0000 0000
00000010: 0000 0000 0000 0000 0000 0000 0000 0000
00000020: 0000 0000 0000 0000 0000 0000 0000 0000
00000030: 0000 0000 0000 0000 0000 0000 0000 0000
00000040: 0000 0000 0000 0000 0000 0000 0000 0000
00000050: 0000 0000 0000 0000 0000 0000 0000 0000
00000060: 0000 0000 0000 0000 0000 0000 0000 0000
00000070: 0000 0000 0000 0000 0000 0000 0000 0000
00000080: 0000 0000 0000 0000 0000 0000 0000 0000
00000090: 0000 0000 0000 0000 0000 0000 0000 0000
000000a0: 0000 0000 0000 0000 0000 0000 0000 0000
000000b0: 0000 0000 0000 0000 0000 0000 0000 0000
000000c0: 0000 0000 0000 0000 0000 0000 0000 0000
000000d0: 0000 0000 0000 0000 0000 0000 0000 0000
000000e0: 0000 0000 0000 0000 0000 0000 0000 0000
000000f0: 0000 0000 0000 0000 0000 0000 0000 0000
00000100: 0000 0000 0000 0000 0000 0000 0000 0000
00000110: 0000 0000 0000 0000 0000 0000 0000 0000
00000120: 0000 0000 0000 0000 0000 0000 0000 0000
00000130: 0000 0000 0000 0000 0000 0000 0000 0000
00000140: 0000 0000 0000 0000 0000 0000 0000 0000
00000150: 0000 0000 0000 0000 0000 0000 0000 0000
00000160: 0000 0000 0000 0000 0000 0000 0000 0000
00000170: 0000 0000 0000 0000 0000 0000 0000 0000
00000180: 0000 0000 0000 0000 0000 0000 0000 0000
00000190: 0000 0000 0000 0000 0000 0000 0000 0000
000001a0: 0000 0000 0000 0000 0000 0000 0000 0000
000001b0: 0000 0000 0000 0000 0000 0000 0000 0000
000001c0: 0000 0000 0000 0000 0000 0000 0000 0000
000001d0: 0000 0000 0000 0000 0000 0000 0000 0000
000001e0: 0000 0000 0000 0000 0000 0000 0000 0000
000001f0: 0000 0000 0000 0000 0000 0000 0000 0000
0.0 0.0 0.0 0.0 0.0 0.0 0.0 0.0
0.0 0.0 0.0 0.0 0.0 0.0 0.0 0.0
0.0 0.0 0.0 0.0 0.0 0.0 0.0 0.0
0.0 0.0 0.0 0.0 0.0 0.0 0.0 0.0
0.0 0.0 0.0 0.0 0.0 0.0 0.0 0.0
0.0 0.0 0.0 0.0 0.0 0.0 0.0 0.0
0.0 0.0 0.0 0.0 0.0 0.0 0.0 0.0
0.0 0.0 0.0 0.0 0.0 0.0 0.0 0.0
0.0 0.0 0.0 0.0 0.0 0.0 0.0 0.0
0.0 0.0 0.0 0.0 0.0 0.0 0.0 0.0
0.0 0.0 0.0 0.0 0.0 0.0 0.0 0.0
0.0 0.0 0.0 0.0 0.0 0.0 0.0 0.0
0.0 0.0 0.0 0.0 0.0 0.0 0.0 0.0
0.0 0.0 0.0 0.0 0.0 0.0 0.0 0.0
0.0 0.0 0.0 0.0 0.0 0.0 0.0 0.0
0.0 0.0 0.0 0.0 0.0 0.0 0.0 0.0

bn1.running_mean f4 [128]
00000000: 0000 0000 0000 0000 0000 0000 0000 0000
00000010: 0000 0000 0000 0000 0000 0000 0000 0000
00000020: 0000 0000 0000 0000 0000 0000 0000 0000
00000030: 0000 0000 0000 0000 0000 0000 0000 0000
00000040: 0000 0000 0000 0000 0000 0000 0000 0000
00000050: 0000 0000 0000 0000 0000 0000 0000 0000
00000060: 0000 0000 0000 0000 0000 0000 0000 0000
00000070: 0000 0000 0000 0000 0000 0000 0000 0000
00000080: 0000 0000 0000 0000 0000 0000 0000 0000
00000090: 0000 0000 0000 0000 0000 0000 0000 0000
000000a0: 0000 0000 0000 0000 0000 0000 0000 0000
000000b0: 0000 0000 0000 0000 0000 0000 0000 0000
000000c0: 0000 0000 0000 0000 0000 0000 0000 0000
000000d0: 0000 0000 0000 0000 0000 0000 0000 0000
000000e0: 0000 0000 0000 0000 0000 0000 0000 0000
000000f0: 0000 0000 0000 0000 0000 0000 0000 0000
00000100: 0000 0000 0000 0000 0000 0000 0000 0000
00000110: 0000 0000 0000 0000 0000 0000 0000 0000
00000120: 0000 0000 0000 0000 0000 0000 0000 0000
00000130: 0000 0000 0000 0000 0000 0000 0000 0000
00000140: 0000 0000 0000 0000 0000 0000 0000 0000
00000150: 0000 0000 0000 0000 0000 0000 0000 0000
00000160: 0000 0000 0000 0000 0000 0000 0000 0000
00000170: 0000 0000 0000 0000 0000 0000 0000 0000
00000180: 0000 0000 0000 0000 0000 0000 0000 0000
00000190: 0000 0000 0000 0000 0000 0000 0000 0000
000001a0: 0000 0000 0000 0000 0000 0000 0000 0000
000001b0: 0000 0000 0000 0000 0000 0000 0000 0000
000001c0: 0000 0000 0000 0000 0000 0000 0000 0000
000001d0: 0000 0000 0000 0000 0000 0000 0000 0000
000001e0: 0000 0000 0000 0000 0000 0000 0000 0000
000001f0: 0000 0000 0000 0000 0000 0000 0000 0000
0.0 0.0 0.0 0.0 0.0 0.0 0.0 0.0
0.0 0.0 0.0 0.0 0.0 0.0 0.0 0.0
0.0 0.0 0.0 0.0 0.0 0.0 0.0 0.0
0.0 0.0 0.0 0.0 0.0 0.0 0.0 0.0
0.0 0.0 0.0 0.0 0.0 0.0 0.0 0.0
0.0 0.0 0.0 0.0 0.0 0.0 0.0 0.0
0.0 0.0 0.0 0.0 0.0 0.0 0.0 0.0
0.0 0.0 0.0 0.0 0.0 0.0 0.0 0.0
0.0 0.0 0.0 0.0 0.0 0.0 0.0 0.0
0.0 0.0 0.0 0.0 0.0 0.0 0.0 0.0
0.0 0.0 0.0 0.0 0.0 0.0 0.0 0.0
0.0 0.0 0.0 0.0 0.0 0.0 0.0 0.0
0.0 0.0 0.0 0.0 0.0 0.0 0.0 0.0
0.0 0.0 0.0 0.0 0.0 0.0 0.0 0.0
0.0 0.0 0.0 0.0 0.0 0.0 0.0 0.0
0.0 0.0 0.0 0.0 0.0 0.0 0.0 0.0

bn1.running_var f4 [128]
00000000: 0000 803f 0000 803f 0000 803f 0000 803f
00000010: 0000 803f 0000 803f 0000 803f 0000 803f
00000020: 0000 803f 0000 803f 0000 803f 0000 803f
00000030: 0000 803f 0000 803f 0000 803f 0000 803f
00000040: 0000 803f 0000 803f 0000 803f 0000 803f
00000050: 0000 803f 0000 803f 0000 803f 0000 803f
00000060: 0000 803f 0000 803f 0000 803f 0000 803f
00000070: 0000 803f 0000 803f 0000 803f 0000 803f
00000080: 0000 803f 0000 803f 0000 803f 0000 803f
00000090: 0000 803f 0000 803f 0000 803f 0000 803f
000000a0: 0000 803f 0000 803f 0000 803f 0000 803f
000000b0: 0000 803f 0000 803f 0000 803f 0000 803f
000000c0: 0000 803f 0000 803f 0000 803f 0000 803f
000000d0: 0000 803f 0000 803f 0000 803f 0000 803f
000000e0: 0000 803f 0000 803f 0000 803f 0000 803f
000000f0: 0000 803f 0000 803f 0000 803f 0000 803f
00000100: 0000 803f 0000 803f 0000 803f 0000 803f
00000110: 0000 803f 0000 803f 0000 803f 0000 803f
00000120: 0000 803f 0000 803f 0000 803f 0000 803f
00000130: 0000 803f 0000 803f 0000 803f 0000 803f
00000140: 0000 803f 0000 803f 0000 803f 0000 803f
00000150: 0000 803f 0000 803f 0000 803f 0000 803f
00000160: 0000 803f 0000 803f 0000 803f 0000 803f
00000170: 0000 803f 0000 803f 0000 803f 0000 803f
00000180: 0000 803f 0000 803f 0000 803f 0000 803f
00000190: 0000 803f 0000 803f 0000 803f 0000 803f
000001a0: 0000 803f 0000 803f 0000 803f 0000 803f
000001b0: 0000 803f 0000 803f 0000 803f 0000 803f
000001c0: 0000 803f 0000 803f 0000 803f 0000 803f
000001d0: 0000 803f 0000 803f 0000 803f 0000 803f
000001e0: 0000 803f 0000 803f 0000 803f 0000 803f
000001f0: 0000 803f 0000 803f 0000 803f 0000 803f
1.0 1.0 1.0 1.0 1.0 1.0 1.0 1.0
1.0 1.0 1.0 1.0 1.0 1.0 1.0 1.0
1.0 1.0 1.0 1.0 1.0 1.0 1.0 1.0
1.0 1.0 1.0 1.0 1.0 1.0 1.0 1.0
1.0 1.0 1.0 1.0 1.0 1.0 1.0 1.0
1.0 1.0 1.0 1.0 1.0 1.0 1.0 1.0
1.0 1.0 1.0 1.0 1.0 1.0 1.0 1.0
1.0 1.0 1.0 1.0 1.0 1.0 1.0 1.0
1.0 1.0 1.0 1.0 1.0 1.0 1.0 1.0
1.0 1.0 1.0 1.0 1.0 1.0 1.0 1.0
1.0 1.0 1.0 1.0 1.0 1.0 1.0 1.0
1.0 1.0 1.0 1.0 1.0 1.0 1.0 1.0
1.0 1.0 1.0 1.0 1.0 1.0 1.0 1.0
1.0 1.0 1.0 1.0 1.0 1.0 1.0 1.0
1.0 1.0 1.0 1.0 1.0 1.0 1.0 1.0
1.0 1.0 1.0 1.0 1.0 1.0 1.0 1.0

fc2.weight f4 [256, 132]
00000000: 97cf ccba 6099 bd3a 78e2 2834 6cb0 06bb
00000010: 5b24 31bb dc9a 57ba 146f 3b3b 3c99 05b6
00000020: 037b 0f3b d222 90ba 9762 343a 8a1c 773a
00000030: d0a0 47ba 6744 213b 3064 4538 a834 063a
00000040: 2796 e2ba 9b27 aa36 e32f a7ba 847d f432
00000050: 1f19 4fb9 5c19 3eba af6c b93a 3c06 d339
00000060: 30f3 80ba 18da 6536 8b9d 99ba 29d9 c93a
00000070: 577a 7035 64c3 1bba 68e4 52b8 1899 722f
00000080: 7d5c aeba 870a e335 b1c2 64bb ea62 19bb
00000090: b70d d0b7 76c7 59b7 da66 8a39 2d6b 9238
000000a0: 5c16 523a b759 6dba ad55 513b 6f87 76b2
000000b0: 2eb4 20bb 5d35 ddba 728e d139 6c40 883a
000000c0: e7ba f8b6 897d 2735 bba0 07bb fc96 c9b9
000000d0: 7b4c cf35 ea32 0d3b c284 80b3 841f 73b9
000000e0: 81ff 83b9 01c7 25ba 8ea2 693a d095 053a
000000f0: 4c0d 8f3a 4991 d0b6 1495 8eb9 3279 e13a
00000100: 280e e238 5513 94ba d168 cd31 83b4 a3bb
00000110: 5f64 c63a 1687 e2b9 f799 0abb ebf9 5437
00000120: 7619 0b3b 3ff3 95ba 728b f735 b916 6cb9
00000130: 826a 93ba cb85 00b8 ca68 e8b8 56c3 063b
00000140: 1d35 1c3a b8e2 b938 ceb8 f43a 1c52 38bb
00000150: dd96 a338 c8f5 84ba aa3c 2bb9 4dcb b9b1
00000160: 33fd deb9 2e68 4d2e 3564 4236 ef76 9cba
00000170: d060 2ab9 86f6 0ebb c75a 5038 009f a237
00000180: 3b06 a33a 7289 2fba 1319 cdb7 d737 02bb
00000190: e1a1 593a 3cf4 85b4 a127 aeb7 fdcc 84bb
000001a0: e98f 5ebb cfd0 f6ba 49b2 6db9 12e7 4d36
000001b0: a211 5c39 889d d0ba cf71 1ebb 0a5c 08bb
000001c0: 1301 4eb8 4894 023b e129 3fb5 844d 5838
000001d0: c95d fb34 29a8 ecba f654 85ba 8e6f 6433
000001e0: 7ef1 8639 8a51 1b3a 5cdf eaba 9d21 37b5
000001f0: 494e 5abb f8b6 feb5 7ca1 3eba c989 9239
00000200: 3609 463a 9771 d2ba 7e86 95ba f512 553b
00000210: 272b 53ae c3fe 8f31 b441 2eaa cc0b 36af
00000220: 3251 70b1 2ee1 a62f 0843 9b31 0edf 13aa
00000230: e8d9 29b0 eaa2 5a2f 4c06 aa2e bc44 2b31
00000240: 896b 8e30 4bcd e630 7add f1ad 8892 8e2f
00000250: 633b afae 0093 8129 afb8 d0ae 3fa9 b3a6
00000260: 4aab 1c2f b7b8 1a31 bd83 e22e ae39 552f
00000270: ef80 81b0 077d 8a29 ae87 0130 c9f7 4a31
00000280: b32b 65ac ade9 7c2f f749 8d2b 3d82 56a7
00000290: 7815 1baf a15e d4ac dc04 c9b1 be94 d72f
000002a0: d6cb 1fac 39bd 0dad f5d8 9630 2365 d62e
000002b0: 15b5 2031 5339 b92d a3a1 0b30 4119 5726
000002c0: d613 b4b1 0b54 91b1 b66b dab0 1129 80af
000002d0: 281a 0a2c 53d4 922b bff0 83b1 766c 662f
000002e0: f878 1cab 9091 0731 4a66 0d27 298d 81af
000002f0: 1283 1a2f 00b1 90b0 e250 cdaf 8c37 16ae
00000300: 9ec2 0f31 1810 512b cc6e 1caf 46ca 8caf
00000310: 7ee7 d930 ddeb 85b0 0a71 08aa 36f2 7ab2
00000320: 6586 2c30 54c0 abb1 f992 612e dbaa d029
00000330: 8934 1231 03a6 a8af f730 f5aa 6294 a02d
00000340: fbfd 8fae 2799 1caf a052 5630 4d0a 18b0
00000350: 040d a330 23c8 77ac 837a 872e 5f3f 07b2
00000360: 1046 7aae 570c 422e 0d0e c8ad c16c 3f26
00000370: a092 46b0 2e4c af23 88e1 b32c 58d1 a530
00000380: 146f 5d2e bfb8 c7b1 b740 422d 455f 89ae
00000390: 7652 ff2f aaae df2e 6c9a 16b0 8930 d3b0
000003a0: 4387 ebaf 89bf b2a8 0b66 332a 6575 3bb2
000003b0: 4b84 bbb1 948e e1af 8fd3 5aaf 6dbf dbac
000003c0: 4688 3dad 3f58 7daf 02ba 2db0 7dce c8ae
000003d0: 9d0c 2dac 71fb e8ae 1b8b 75a6 f5d6 9baf
000003e0: 8a43 c3a8 f5bf dd2f 5f49 7cae 2f87 8f2a
000003f0: 5006 51ad b2ef 9431 bb0e ccb0 2d52 aa2a
-0.0015625831 0.0014465265 1.5728608e-07 -0.0020551933 -0.0027029726 -0.0008224675 0.0028600143 -1.9907739e-06
0.002189339 -0.0010996705 0.0006881146 0.0009426555 -0.00076152105 0.0024607421 4.7061767e-05 0.0005119541
-0.001728718 5.0710055e-06 -0.001275536 2.8462416e-08 -0.00019750417 -0.00072517036 0.001414677 0.000402497
-0.00098381 3.4250606e-06 -0.0011719925 0.0015399802 8.9584995e-07 -0.0005941896 -5.028062e-05 2.2064162e-10
-0.001330271 1.6915882e-06 -0.0034906084 -0.0023404905 -2.4801919e-05 -1.29806485e-05 0.00026398042 6.9817856e-05
0.0008014196 -0.0009054201 0.0031941936 -1.4349879e-08 -0.0024521458 -0.0016876865 0.00039969716 0.0010395176
-7.4127342e-06 6.2395026e-07 -0.0020695168 -0.000384502 1.5444961e-06 0.002154524 -5.984613e-08 -0.00023186026
-0.00025176632 -0.00063239044 0.0008912467 0.0005095871 0.0010913997 -6.2157965e-06 -0.00027195422 0.0017202257
0.000107791566 -0.0011297265 5.9782015e-09 -0.004995884 0.0015136114 -0.00043206726 -0.00211489 1.2694373e-05
0.0021224893 -0.0011440291 1.8443518e-06 -0.00022515179 -0.0011246952 -3.0642183e-05 -0.000110821406 0.0020563207
0.0005958842 8.863717e-05 0.0018670799 -0.0028125113 7.800546e-05 -0.0010144049 -0.0001633043 -5.4073213e-09
-0.00042531788 4.6704134e-11 2.896658e-06 -0.00119373 -0.00016248529 -0.002181442 4.9675607e-05 1.9385945e-05
0.001243777 -0.0006696201 -2.444958e-05 -0.001986971 0.0008302015 -2.4950884e-07 -2.076087e-05 -0.004052757
-0.003396029 -0.001883054 -0.00022668498 3.068188e-06 0.00020987404 -0.0015916089 -0.0024176722 -0.0020806813
-4.9115228e-05 0.0019924808 -7.1213987e-07 5.1570605e-05 4.682063e-07 -0.0018055487 -0.0010172415 5.3186845e-08
0.00025738397 0.0005924931 -0.001791935 -6.8221726e-07 -0.0033310822 -1.8977726e-06 -0.0007271988 0.00027949948
0.0007554473 -0.0016055581 -0.001140788 0.003251252 -4.8014172e-11 4.190811e-09 -1.54771e-13 -1.6556995e-10
-3.497075e-09 3.0355224e-10 4.5187143e-09 -1.313361e-13 -6.1791505e-10 1.9884863e-10 7.7318235e-11 2.4922846e-09
1.0362423e-09 1.679305e-09 -2.7496883e-11 2.5933766e-10 -7.968628e-11 5.754251e-14 -9.491551e-11 -1.2466494e-15
1.4248971e-10 2.2514948e-09 1.03006915e-10 1.9392729e-10 -9.42263e-10 6.15012e-14 4.712274e-10 2.9535718e-09
-3.2567115e-12 2.3002285e-10 1.0039182e-12 -2.9769068e-15 -1.4104795e-10 -6.0359083e-12 -5.8504224e-09 3.921396e-10
-2.270841e-12 -8.056938e-12 1.0975599e-09 9.749559e-11 2.3385998e-09 2.1057522e-11 5.0797605e-10 7.4627335e-16
-5.2409446e-09 -4.22961e-09 -1.5892201e-09 -2.3312244e-10 1.96255e-12 1.0432856e-12 -3.8399715e-09 2.0956911e-10
-5.559021e-13 1.9727828e-09 1.9623132e-15 -2.3565264e-10 1.4052784e-10 -1.0527685e-09 -3.7346753e-10 -3.4155387e-11
2.0919866e-09 7.427405e-13 -1.422748e-10 -2.5609576e-10 1.5854622e-09 -9.74406e-10 -1.2118445e-13 -1.4606988e-08
6.276422e-10 -4.99862e-09 5.1289615e-11 9.266694e-14 2.127566e-09 -3.067698e-10 -4.355472e-13 1.825579e-11
-6.548003e-11 -1.4242528e-10 7.7970164e-10 -5.5311916e-10 1.186351e-09 -3.521191e-12 6.160852e-11 -7.872443e-09
-5.6905647e-11 4.4121453e-11 -2.2743607e-11 6.6413826e-16 -7.2240347e-10 1.9005801e-17 5.112525e-12 1.2064829e-09
5.034824e-11 -5.8126655e-09 1.1041993e-11 -6.246962e-11 4.6442822e-10 1.01718925e-10 -5.478913e-10 -1.5366065e-09
-4.284236e-10 -1.9845035e-14 1.5933797e-13 -1.0911525e-08 -5.4574563e-09 -4.102857e-10 -1.9902145e-10 -6.245607e-12
-1.0773665e-11 -2.3041567e-10 -6.3201366e-10 -9.131627e-11 -2.459178e-12 -1.05948035e-10 -8.5189973e-16 -2.8347072e-10
-2.167864e-14 4.033606e-10 -5.7363333e-11 2.5495705e-13 -1.1881676e-11 4.334617e-09 -1.484714e-09 3.0255087e-13

fc2.bias f4 [256]
00000000: e449 85bb 326c 14b2 97c5 55b1 81f0 893c
00000010: d381 d139 b97c 00b2 de3f b3b6 23bc fbbb
00000020: 9143 14b0 2b96 68ba 4ee9 a8b2 ab79 49b9
00000030: f954 80b8 4596 acbb 552b 07b7 1e04 9abb
00000040: 329f 73ab 3ca4 acb6 e9c5 f038 663b aa37
00000050: 9346 85af 9462 b0b4 d30a 57aa 6a7e 6123
00000060: 5788 aeb3 1904 bcb1 f6c7 bca8 7135 26a8
00000070: 908a 1ca7 bb39 a1b2 9d1f 85a6 cdc6 2fbb
00000080: 2387 5fb5 9fbf 6fac 0467 93b8 0d17 34bb
00000090: 0c90 d7b4 571d d6b8 f472 ff37 9dfe 1bbc
000000a0: 182a 01ad ccca 432c 3c03 80af 7ac2 dab8
000000b0: a830 833d 64c1 8eb9 d810 67b6 5ee9 b8b6
000000c0: b551 25b9 3b51 83b6 34d0 3ba6 2ff0 38b8
000000d0: 82bc a8ba c6cf d0a0 0f68 20bb 0aae 64b7
000000e0: 7a8c 39b3 3c92 c9b0 c081 db22 30ad fab9
000000f0: 8efe be9c 1aed a238 546f fab7 9dc7 d1ae
00000100: b9ae b4b4 c63b cdb7 03f7 07b8 dc1f a89f
00000110: 5c43 e6b6 534f d6b9 b7a7 97ad 85c3 60b0
00000120: 4d95 b4b7 edc1 38b6 05d0 a3bb 8d7e 082a
00000130: d118 af37 875d fdbb 29c4 09b5 887e 033d
00000140: 8294 942c 4d5e 90b3 69b4 00b9 6994 1eaf
00000150: d792 f6a8 e8e7 14b4 56ae 18b3 46af e1b8
00000160: ac27 30aa 6faf 69aa 6432 ceb3 8979 38a7
00000170: c6c8 473f 383e a4aa 21f4 1ab8 57b0 cca9
00000180: b5c8 5db3 6e9c 04b6 e4b6 adb3 dbd8 9db7
00000190: 0cc9 98ab 0771 e2ba 0962 cabb f3d3 80b6
000001a0: c0aa 32b9 d046 88b6 1c59 23b0 0f6b 8fbb
000001b0: 80e8 44b3 ceca 72a4 9485 9437 b2e0 7ab9
000001c0: b216 80b6 d0ee 35bc 1901 1bb1 4990 9aae
000001d0: 1432 ec3d b17a 962b edf1 3bba 9649 c7af
000001e0: d981 beac 39d8 77ae b5fc 0ebd 9c08 a7b9
000001f0: 4b48 59af 6cca 62b5 65d5 68b8 9a30 bcb4
00000200: 3457 2db9 2f0c 5db8 f156 76bb 9dda 8eb1
00000210: e77c d8af 1c5f 8ab7 f737 e22d c3f6 0dab
00000220: f4d6 b7b8 5479 84b8 8a97 4fa5 af1a 36b3
00000230: d02b 76ad ed8d c6b3 48a8 8cb9 97bd d7ba
00000240: bcd4 d6bc bcdf 85b4 13eb e5b1 974a 5eb4
00000250: de2c beac 766c 44b0 2ea5 89b0 3f46 99b0
00000260: a823 c329 dee6 aab3 e1bc a7b9 3e40 b2b9
00000270: 71b1 40b7 762f 83ac 4ea0 a5af c28a 89bb
00000280: 79f7 1eba b51c ab3e 6c33 49bb b8f1 723c
00000290: 2f6e 3ead cfc7 bcba 79aa 9a38 9b0d 4bba
000002a0: 6e6e 3eaa 1e7f 0eb6 bec4 0bbb 4373 21b9
000002b0: 37e0 cfb7 9c29 00b8 eca0 abac 1f3a 08bb
000002c0: 23ad 1aba 9aaf 6e9e 6ac6 03b6 adcf 37b1
000002d0: 51a1 41bc 2992 33b0 896f 923d 984e a4bb
000002e0: a305 2cbb a76a beb3 a294 44ba cf33 ecb4
000002f0: 48b9 faaf bce7 c1b8 d3fc b1ae 3b9f 11b2
00000300: cb72 39b9 9d2f b4b2 f9c6 51b6 a7f9 44b3
00000310: dfe0 cbb9 fc4a 43a1 1fe9 44af 9536 35b5
00000320: b582 87b4 1bcf 3db9 7248 08a6 bbc8 9ab5
00000330: cc2a ecba eb45 9db7 efee c0a7 787d c894
00000340: f334 cdb6 52d6 c5a1 5326 5cb4 2473 b1b9
00000350: f0b5 b0b9 7fb5 acaf 6f65 1cb3 0fd6 89b0
00000360: f04e 4db3 ca36 59b1 cb66 55aa 35e8 d8ac
00000370: d23a 8ab4 2132 3fb4 5a92 bba9 8b7e 0db7
00000380: 0453 bbad 5a25 01b2 4a18 1bbb 7f09 a0b9
00000390: 8c86 1eb5 f7ff 4eb4 4355 b2b8 bd8d c3a8
000003a0: 59bf 5fbb 73af 093e 9380 c2b9 a71b abb4
000003b0: d1aa 95ba c33d 7cb5 6664 fbae 97c8 eaaf
000003c0: 7867 2eb4 bd13 ccb3 e89a 88bb 0be5 a9b5
000003d0: c47b 5338 03ec 19b2 683f b1b1 3ccc aea3
000003e0: 9c3d 7faf 6ea9 44b7 73dc 63b4 5ea7 5bb6
000003f0: 69ed 55ae a18a ecb4 f70c 209a 1417 57b9
-0.0040676463 -8.639335e-09 -3.1107896e-09 0.016838314 0.00039960313 -7.478939e-09 -5.342051e-06 -0.0076823398
-5.3938104e-10 -0.00088724744 -1.9663869e-08 -0.00019214179 -6.119343e-05 -0.005266937 -8.056716e-06 -0.004700198
-8.655187e-13 -5.145119e-06 0.000114809554 2.0293239e-05 -2.4242705e-10 -3.285428e-07 -1.9099591e-13 1.2224044e-17
-8.1273065e-08 -5.471986e-09 -2.0958912e-14 -9.226439e-15 -2.1724464e-15 -1.876912e-08 -9.237298e-16 -0.0026821375
-8.3270623e-07 -3.4070314e-12 -7.0286944e-05 -0.002747956 -4.015168e-07 -0.0001020978 3.0451898e-05 -0.009521154
-7.342148e-12 2.7823742e-12 -2.3285363e-10 -0.00010431274 0.06405765 -0.00027228438 -3.4431487e-06 -5.510795e-06
-0.00015766064 -3.9135607e-06 -6.5160826e-16 -4.4092707e-05 -0.0012873563 -3.5374064e-19 -0.0024476086 -1.3630381e-05
-4.320143e-08 -1.4666237e-09 5.9497447e-18 -0.0004781275 -1.2638946e-21 7.7689256e-05 -2.9854164e-05 -9.539678e-11
-3.365474e-07 -2.4465739e-05 -3.2416556e-05 -7.1203474e-20 -6.862376e-06 -0.00040876362 -1.7241193e-11 -8.1768575e-10
-2.1527196e-05 -2.7531016e-06 -0.004999163 1.2123133e-13 2.0873182e-05 -0.0077320966 -5.132193e-07 0.03210309
4.2229007e-12 -6.722676e-08 -0.00012274239 -1.4422742e-10 -2.7375168e-14 -1.3867941e-07 -3.5548815e-08 -0.00010761483
-1.5645704e-13 -2.0755423e-13 -9.6017885e-08 -2.5601014e-15 0.7804073 -2.9175425e-13 -3.6943824e-05 -9.09001e-14
-5.1638114e-08 -1.9760587e-06 -8.089208e-08 -1.881684e-05 -1.0856051e-12 -0.0017276116 -0.0061762375 -3.8393714e-06
-0.00017039012 -4.0613595e-06 -5.9425687e-10 -0.004376776 -4.5846264e-08 -5.2647167e-17 1.7705177e-05 -0.00023925563
-3.8173393e-06 -0.011104301 -2.2556093e-09 -7.0287394e-11 0.11532989 1.0692195e-12 -0.00071695336 -3.6250175e-10
-5.4145408e-12 -5.6353342e-11 -0.03490897 -0.00031859137 -1.9761719e-10 -8.4486123e-07 -5.551185e-05 -3.505309e-07
-0.00016531051 -5.2701853e-05 -0.0037588442 -4.1575974e-09 -3.937892e-10 -1.649517e-05 2.5718079e-11 -5.0435714e-13
-8.766158e-05 -6.3168496e-05 -1.8005731e-16 -4.2399446e-08 -1.3993209e-11 -9.2459096e-08 -0.0002682826 -0.00164597
-0.026224487 -2.493597e-07 -6.691502e-09 -2.0702497e-07 -5.405106e-12 -7.1458517e-10 -1.0015009e-09 -1.115218e-09
8.665925e-14 -7.9582364e-08 -0.00031993448 -0.0003399867 -1.1485406e-05 -3.728513e-12 -3.0127228e-10 -0.0041974494
-0.0006064098 0.3342034 -0.0030700816 0.014828138 -1.0824715e-11 -0.0014402809 7.375045e-05 -0.0007745863
-1.6913703e-13 -2.123364e-06 -0.0021326984 -0.00015397095 -2.4780731e-05 -3.055633e-05 -4.8779782e-12 -0.0020786596
-0.0005900433 -1.2635929e-20 -1.9636013e-06 -2.6748055e-09 -0.011818246 -6.5327527e-10 0.0715018 -0.005014252
-0.0026248477 -8.8669644e-08 -0.00074989547 -4.399612e-07 -4.5606385e-10 -9.246121e-05 -8.093939e-11 -8.476316e-09
-0.00017685739 -2.097641e-08 -3.1259244e-06 -4.5861864e-08 -0.0003888672 -6.616781e-19 -1.7908917e-10 -6.750718e-07
-2.524081e-07 -0.00018101597 -4.728266e-16 -1.1532314e-06 -0.0018018126 -1.8748417e-05 -5.3549758e-15 -2.0244328e-26
-6.11564e-06 -1.3405969e-18 -2.0503039e-07 -0.00033845857 -0.0003370489 -3.1415578e-10 -3.6413834e-08 -1.0028901e-09
-4.7802075e-08 -3.16088e-09 -1.8953864e-13 -6.1648694e-12 -2.57473e-07 -1.7806498e-07 -8.329856e-14 -8.433718e-06
-2.1296305e-11 -7.517281e-09 -0.00236656 -0.00030524653 -5.905538e-07 -1.9278365e-07 -8.503583e-05 -2.1710818e-14
-0.0034141152 0.13445835 -0.0003709836 -3.1871352e-07 -0.0011418705 -9.396719e-07 -1.1431993e-10 -4.270688e-10
-1.6242655e-07 -9.5030806e-08 -0.004168857 -1.2658141e-06 5.0421586e-05 -8.959435e-09 -5.1585864e-09 -1.8951614e-17
-2.3214003e-10 -1.1721959e-05 -2.1221221e-07 -3.2730964e-06 -4.8641455e-11 -4.405929e-07 -3.3097697e-23 -0.00020512595

fc3.weight f4 [1, 256]
00000000: 66d9 623c 8dc6 4bb0 1fba 0931 b9a5 e73d
00000010: 4377 d6b9 a8ea 2f32 a893 3737 6d2f 84bc
00000020: 3fb9 9330 409e a43b 5bb0 8839 ab69 46ba
00000030: 5688 00b9 89e5 46bc 5cf7 13b6 ae63 15bc
00000040: 8356 d02b 9b5b 0236 f954 dbb9 d103 1439
00000050: 5eff 1630 f216 3735 1e2c 6caa 9813 6521
00000060: 6755 2d33 a7d9 37b7 e915 72aa 740b 4528
00000070: 4ed4 ef26 3193 9f36 82cc 9b28 ae42 483b
00000080: 1229 08b7 611a b02b 9072 783a 7634 1bbb
00000090: a6ef 45b4 de1a 62b6 10ba 81b8 add1 acbe
000000a0: 5cd2 10ae 8a70 df2b 00dc 2b2f a3a4 c138
000000b0: 8270 243e 85ee 56b9 4109 1bb6 1b86 1fb7
000000c0: ba62 9039 627f 8db7 50cc 3fba 790a 2b3a
000000d0: b91d 233c c28c aab2 69a9 0e3c 70c8 7e37
000000e0: 1589 99b2 ff97 a6b1 71e5 29b6 c0ba 8d3b
000000f0: aa11 231d 8f20 1439 0304 a8b9 8e8b 842e
00000100: 51a6 96b6 73be 9b38 6930 e7b6 8979 d31f
00000110: bcff 8bb6 0f45 f139 f281 06af 0f95 4a31
00000120: bcbd d938 9c6c dd36 e76f 9fbb 2599 3eaa
00000130: cf8f c438 c061 70bc 7ca4 5135 32bd 8a3e
00000140: b935 73ac 80de 58b1 da9d 47b8 ae88 a4af
00000150: 31a7 4ea9 88bd 5235 8b06 0eb3 14f6 103a
00000160: b3cc ed26 aeb6 c62a 32a7 9734 469b 0ea9
00000170: 3a2f a13f 98b3 b72b 5885 abb9 b605 ada8
00000180: ac52 13b3 a861 16b5 8e76 b732 8266 8238
00000190: 7b27 94ae 60aa a43a 4bb4 7ebc 8fe3 d8b6
000001a0: 75b4 3cb9 dd59 98b8 5526 6930 f9a9 8dba
000001b0: 127a 7b34 c77a ff24 ee53 be38 7b4b 0b3c
000001c0: a06b 54b8 3a28 aabb a16c 2db1 96d8 22af
000001d0: 3fdc 5c3e 9e0b adac 670c b739 ddd3 f32e
000001e0: f348 abab db55 26ae 59c0 42bf 5be1 633a
000001f0: 6992 2eaf 00d0 9535 dbc4 6a39 ca5a 9b35
00000200: a126 1b3b 3e55 fb39 1157 08bc 19de 7fb2
00000210: 47ef 9830 d842 f537 c8d9 8eac 57b9 0239
00000220: a47a ccbb 3a28 2aba aebf 4125 bab5 a13b
00000230: bdda 422d bbb7 2034 a3af b8b8 f93a 40b9
00000240: 69da 6bbe 8f1c c133 ca7e 2132 e6ad 19b0
00000250: 86bc 353a f5ad fbb0 15c2 0f30 52e0 9bb0
00000260: 4851 872b 54e1 4eb4 6645 7b3a b8d3 3dbb
00000270: 177f e838 c980 9dab 3238 16ba 9c16 153b
00000280: 44ce 59bb 0a08 443f 2a5d 243b 8826 123e
00000290: ef43 4cac 9b8e bd3a d846 ac39 d110 f3bb
000002a0: 5259 7eb4 63f3 93b4 1f2f acbb 0851 2439
000002b0: 16ba 32b8 bf0f 3db9 c644 a6ab 1913 a23a
000002c0: 0545 68bc d592 0fb2 8da6 b4b5 e36b 9eb0
000002d0: b7c0 d83b aa80 39ba b9eb 923e 3681 0538
000002e0: e733 a8bb f2cb 5e33 0c86 0eb9 e4de a6b3
000002f0: f0a4 42b0 8a1d 24b8 61c9 9cae e892 1232
00000300: 9228 acba 5831 65b3 a892 0db7 e782 6533
00000310: d85e 523a 12b1 90a1 b4a8 752d c1c8 0736
00000320: 12cd 00b5 09c5 08bb 3668 b3a3 3dcf 15b6
00000330: 2e68 5fb7 1885 d437 af1f d8a7 9fb4 f423
00000340: 2aeb 8d36 b47e 8aa3 d6cb 7435 8cca 3d37
00000350: a06b 213c de6f 273b 88e4 a032 b82c 39b0
00000360: 6b09 bb31 27ff fdb3 d02a 9f2a 91ed 192d
00000370: 8a06 6633 8b4b 37b2 6889 a235 0da0 ad36
00000380: d619 542e aee9 86b8 286a c43b bdaf 8b39
00000390: 39c4 01b6 081f 3539 fd45 edb7 a118 05aa
000003a0: fe5b 9138 4999 8c3e 56e3 30ba bc43 9fb4
000003b0: 4361 173b 9921 87b4 01da 1d2e 265b 0f30
000003c0: 0eb0 36b3 756d 3437 8d99 2b3c 80b4 a4b4
000003d0: ff06 40b7 74ea 9e32 6381 1cb2 506f 1ab5
000003e0: 944c bd2f 5943 47b5 d7e2 5935 0800 eab4
000003f0: 29f0 8b2d e5ec 42b5 fc1a 8319 00f0 79b9
0.013845777 -7.413313e-10 2.0041921e-09 0.11310906 -0.00040906118 1.0239695e-08 1.0942029e-05 -0.016135896
1.0748308e-09 0.0050237477 0.00026071336 -0.00075688463 -0.0001225782 -0.012139686 -2.204869e-06 -0.009118004
1.4803301e-12 1.942483e-06 -0.00041834245 0.00014115802 5.493258e-10 6.82062e-07 -2.0976317e-13 7.761415e-19
4.0357374e-08 -1.0958326e-05 -2.150152e-13 1.093818e-14 1.6641502e-15 4.7557046e-06 1.7297148e-14 0.0030557322
-8.115794e-06 1.2512874e-12 0.00094775204 -0.0023682392 -1.8434238e-07 -3.3692263e-06 -6.185856e-05 -0.3375372
-3.2928646e-11 1.5876339e-12 1.5630519e-10 9.233623e-05 0.16058543 -0.00020497486 -2.3102186e-06 -9.508362e-06
0.00027539377 -1.6867827e-05 -0.0007316517 0.0006524693 0.009955817 -1.9854614e-08 0.008707383 1.5186248e-05
-1.7873882e-08 -4.848516e-09 -2.5316515e-06 0.004325241 2.1582002e-21 0.00014126509 -0.00032046446 6.027455e-11
-4.48971e-06 7.42645e-05 -6.889972e-06 8.956304e-20 -4.172294e-06 0.00046018555 -1.2233395e-10 2.9479599e-09
0.00010382707 6.598957e-06 -0.0048656347 -1.6928523e-13 9.372795e-05 -0.014671743 7.8097924e-07 0.2709747
-3.45622e-12 -3.1558614e-09 -4.7592308e-05 -2.9928543e-10 -4.5886204e-14 7.85069e-07 -3.3067902e-08 0.00055298326
1.6500662e-15 3.5298625e-13 2.8247592e-07 -3.1665012e-14 1.2592537 1.3052779e-12 -0.0003271501 -1.9209335e-14
-3.4301294e-08 -5.6021463e-07 2.1357916e-08 6.2179766e-05 -6.737274e-11 0.0012562983 -0.015545915 -6.463793e-06
-0.00017996303 -7.264663e-05 8.481938e-10 -0.0010808102 2.3420606e-07 1.10796615e-16 9.075539e-05 0.008501883
-5.0644972e-05 -0.0051927837 -2.5236562e-09 -1.4810761e-10 0.21568392 -4.9182455e-12 0.0003491372 1.1087995e-10
-1.2170528e-12 -3.7820285e-11 -0.7607475 0.00086929434 -1.5877223e-10 1.1161901e-06 0.00022389313 1.1574823e-06
0.0023674148 0.0004793796 -0.0083215395 -1.4893453e-08 1.1127462e-09 2.9237402e-05 -4.0600613e-12 0.0001246681
-0.006240206 -0.00064909796 1.6805025e-16 0.0049349936 1.1076193e-11 1.4968002e-07 -8.8065186e-05 -0.00018332516
-0.23032536 8.9924576e-08 9.400262e-09 -5.59082e-10 0.0006932694 -1.8312095e-09 5.2298904e-10 -1.134149e-09
9.614887e-13 -1.9267219e-07 0.00095852313 -0.0028965306 0.000110862944 -1.1191266e-12 -0.00057304197 0.0022749072
-0.0033234516 0.76574767 0.0025079944 0.14272511 -2.9027854e-12 0.0014462055 0.0003285918 -0.007417776
-2.3688088e-07 -2.755797e-07 -0.0052546407 0.00015670445 -4.2611813e-05 -0.0001803031 -1.1814098e-12 0.0012365311
-0.014176612 -8.357081e-09 -1.3459518e-06 -1.1526676e-09 0.0066147703 -0.00070763624 0.28695467 3.1830008e-05
-0.0051331404 5.187389e-08 -0.00013592112 -7.770521e-08 -7.081118e-10 -3.9128157e-05 -7.129831e-11 8.531721e-09
-0.001313465 -5.3363095e-08 -8.438401e-06 5.3437272e-08 0.0008024997 -9.80469e-19 1.3964097e-11 2.0233422e-06
-4.798213e-07 -0.0020869395 -1.9451354e-17 -2.2323359e-06 -1.3316092e-05 2.5334346e-05 -5.9986395e-15 2.6531029e-17
4.229504e-06 -1.5015651e-17 9.1193704e-07 1.1312437e-05 0.00985232 0.0025548856 1.8730375e-08 -6.7366157e-10
5.443487e-09 -1.18276425e-07 2.827378e-13 8.749793e-12 5.3556995e-08 -1.0669178e-08 1.2109931e-06 5.174434e-06
4.8226166e-11 -6.433144e-05 0.0059941 0.0002664308 -1.9336715e-06 0.00017273065 -2.8285192e-05 -1.1821318e-13
6.931274e-05 0.27460697 -0.0006747743 -2.966534e-07 0.0023098744 -2.5170155e-07 3.5891293e-11 5.2152627e-10
-4.2535298e-08 1.0754321e-05 0.010473621 -3.0678711e-07 -1.1445721e-05 1.8500238e-08 -9.109814e-09 -5.753145e-07
3.4433312e-10 -7.423128e-07 8.1168895e-07 -4.358592e-07 1.5909123e-11 -7.261536e-07 1.3555981e-23 -0.00023835897
